<?xml version="1.0" ?>
<net name="torch-jit-export" version="11">
	<layers>
		<layer id="0" name="0" type="Parameter" version="opset1">
			<data shape="1,3,224,224" element_type="f32"/>
			<rt_info>
				<attribute name="fused_names" version="0" value="0"/>
			</rt_info>
			<output>
				<port id="0" precision="FP32" names="0">
					<dim>1</dim>
					<dim>3</dim>
					<dim>224</dim>
					<dim>224</dim>
					<rt_info>
						<attribute name="layout" version="0" layout="[N,C,H,W]"/>
					</rt_info>
				</port>
			</output>
		</layer>
		<layer id="1" name="Gather_5905" type="Const" version="opset1">
			<data element_type="f32" shape="1, 3, 1, 1" offset="0" size="12"/>
			<output>
				<port id="0" precision="FP32">
					<dim>1</dim>
					<dim>3</dim>
					<dim>1</dim>
					<dim>1</dim>
				</port>
			</output>
		</layer>
		<layer id="2" name="Subtract_1995" type="Subtract" version="opset1">
			<data auto_broadcast="numpy"/>
			<rt_info>
				<attribute name="fused_names" version="0" value="Subtract_1995"/>
				<attribute name="preprocessing" version="0"/>
			</rt_info>
			<input>
				<port id="0" precision="FP32">
					<dim>1</dim>
					<dim>3</dim>
					<dim>224</dim>
					<dim>224</dim>
				</port>
				<port id="1" precision="FP32">
					<dim>1</dim>
					<dim>3</dim>
					<dim>1</dim>
					<dim>1</dim>
				</port>
			</input>
			<output>
				<port id="2" precision="FP32">
					<dim>1</dim>
					<dim>3</dim>
					<dim>224</dim>
					<dim>224</dim>
				</port>
			</output>
		</layer>
		<layer id="3" name="Gather_5908" type="Const" version="opset1">
			<data element_type="f32" shape="64, 3, 7, 7" offset="12" size="37632"/>
			<output>
				<port id="0" precision="FP32">
					<dim>64</dim>
					<dim>3</dim>
					<dim>7</dim>
					<dim>7</dim>
				</port>
			</output>
		</layer>
		<layer id="4" name="609" type="Convolution" version="opset1">
			<data strides="2, 2" dilations="1, 1" pads_begin="3, 3" pads_end="3, 3" auto_pad="explicit"/>
			<rt_info>
				<attribute name="fused_names" version="0" value="1, 609, Constant_1996, Divide_1997"/>
				<attribute name="preprocessing" version="0"/>
			</rt_info>
			<input>
				<port id="0" precision="FP32">
					<dim>1</dim>
					<dim>3</dim>
					<dim>224</dim>
					<dim>224</dim>
				</port>
				<port id="1" precision="FP32">
					<dim>64</dim>
					<dim>3</dim>
					<dim>7</dim>
					<dim>7</dim>
				</port>
			</input>
			<output>
				<port id="2" precision="FP32" names="609">
					<dim>1</dim>
					<dim>64</dim>
					<dim>112</dim>
					<dim>112</dim>
				</port>
			</output>
		</layer>
		<layer id="5" name="Reshape_4466" type="Const" version="opset1">
			<data element_type="f32" shape="1, 64, 1, 1" offset="37644" size="256"/>
			<output>
				<port id="0" precision="FP32">
					<dim>1</dim>
					<dim>64</dim>
					<dim>1</dim>
					<dim>1</dim>
				</port>
			</output>
		</layer>
		<layer id="6" name="Subtract_4469" type="Subtract" version="opset1">
			<data auto_broadcast="numpy"/>
			<rt_info>
				<attribute name="fused_names" version="0" value="610"/>
			</rt_info>
			<input>
				<port id="0" precision="FP32">
					<dim>1</dim>
					<dim>64</dim>
					<dim>112</dim>
					<dim>112</dim>
				</port>
				<port id="1" precision="FP32">
					<dim>1</dim>
					<dim>64</dim>
					<dim>1</dim>
					<dim>1</dim>
				</port>
			</input>
			<output>
				<port id="2" precision="FP32">
					<dim>1</dim>
					<dim>64</dim>
					<dim>112</dim>
					<dim>112</dim>
				</port>
			</output>
		</layer>
		<layer id="7" name="Reshape_4460" type="Const" version="opset1">
			<data element_type="f32" shape="1, 64, 1, 1" offset="37900" size="256"/>
			<output>
				<port id="0" precision="FP32">
					<dim>1</dim>
					<dim>64</dim>
					<dim>1</dim>
					<dim>1</dim>
				</port>
			</output>
		</layer>
		<layer id="8" name="Multiply_4470" type="Multiply" version="opset1">
			<data auto_broadcast="numpy"/>
			<rt_info>
				<attribute name="fused_names" version="0" value="610"/>
			</rt_info>
			<input>
				<port id="0" precision="FP32">
					<dim>1</dim>
					<dim>64</dim>
					<dim>112</dim>
					<dim>112</dim>
				</port>
				<port id="1" precision="FP32">
					<dim>1</dim>
					<dim>64</dim>
					<dim>1</dim>
					<dim>1</dim>
				</port>
			</input>
			<output>
				<port id="2" precision="FP32">
					<dim>1</dim>
					<dim>64</dim>
					<dim>112</dim>
					<dim>112</dim>
				</port>
			</output>
		</layer>
		<layer id="9" name="Reshape_4463" type="Const" version="opset1">
			<data element_type="f32" shape="1, 64, 1, 1" offset="38156" size="256"/>
			<output>
				<port id="0" precision="FP32">
					<dim>1</dim>
					<dim>64</dim>
					<dim>1</dim>
					<dim>1</dim>
				</port>
			</output>
		</layer>
		<layer id="10" name="610" type="Add" version="opset1">
			<data auto_broadcast="numpy"/>
			<rt_info>
				<attribute name="fused_names" version="0" value="610"/>
			</rt_info>
			<input>
				<port id="0" precision="FP32">
					<dim>1</dim>
					<dim>64</dim>
					<dim>112</dim>
					<dim>112</dim>
				</port>
				<port id="1" precision="FP32">
					<dim>1</dim>
					<dim>64</dim>
					<dim>1</dim>
					<dim>1</dim>
				</port>
			</input>
			<output>
				<port id="2" precision="FP32" names="610">
					<dim>1</dim>
					<dim>64</dim>
					<dim>112</dim>
					<dim>112</dim>
				</port>
			</output>
		</layer>
		<layer id="11" name="611" type="ReLU" version="opset1">
			<rt_info>
				<attribute name="fused_names" version="0" value="611"/>
			</rt_info>
			<input>
				<port id="0" precision="FP32">
					<dim>1</dim>
					<dim>64</dim>
					<dim>112</dim>
					<dim>112</dim>
				</port>
			</input>
			<output>
				<port id="1" precision="FP32" names="611">
					<dim>1</dim>
					<dim>64</dim>
					<dim>112</dim>
					<dim>112</dim>
				</port>
			</output>
		</layer>
		<layer id="12" name="612" type="MaxPool" version="opset1">
			<data strides="2, 2" pads_begin="1, 1" pads_end="1, 1" kernel="3, 3" rounding_type="floor" auto_pad="explicit"/>
			<rt_info>
				<attribute name="fused_names" version="0" value="612"/>
			</rt_info>
			<input>
				<port id="0" precision="FP32">
					<dim>1</dim>
					<dim>64</dim>
					<dim>112</dim>
					<dim>112</dim>
				</port>
			</input>
			<output>
				<port id="1" precision="FP32" names="612">
					<dim>1</dim>
					<dim>64</dim>
					<dim>56</dim>
					<dim>56</dim>
				</port>
			</output>
		</layer>
		<layer id="13" name="618" type="Const" version="opset1">
			<data element_type="f32" shape="1, 64, 1, 1" offset="38412" size="256"/>
			<output>
				<port id="0" precision="FP32" names="618">
					<dim>1</dim>
					<dim>64</dim>
					<dim>1</dim>
					<dim>1</dim>
				</port>
			</output>
		</layer>
		<layer id="14" name="616" type="Const" version="opset1">
			<data element_type="f32" shape="1, 1, 1, 1" offset="38668" size="4"/>
			<output>
				<port id="0" precision="FP32">
					<dim>1</dim>
					<dim>1</dim>
					<dim>1</dim>
					<dim>1</dim>
				</port>
			</output>
		</layer>
		<layer id="15" name="619" type="Const" version="opset1">
			<data element_type="f32" shape="1, 1, 1, 1" offset="38672" size="4"/>
			<output>
				<port id="0" precision="FP32">
					<dim>1</dim>
					<dim>1</dim>
					<dim>1</dim>
					<dim>1</dim>
				</port>
			</output>
		</layer>
		<layer id="16" name="620" type="FakeQuantize" version="opset1">
			<data levels="2" auto_broadcast="numpy"/>
			<rt_info>
				<attribute name="fused_names" version="0" value="613, 614, 616, 617, 618, 619, 620, 621, 623, 624, 625, 626, 627"/>
			</rt_info>
			<input>
				<port id="0" precision="FP32">
					<dim>1</dim>
					<dim>64</dim>
					<dim>56</dim>
					<dim>56</dim>
				</port>
				<port id="1" precision="FP32">
					<dim>1</dim>
					<dim>64</dim>
					<dim>1</dim>
					<dim>1</dim>
				</port>
				<port id="2" precision="FP32">
					<dim>1</dim>
					<dim>64</dim>
					<dim>1</dim>
					<dim>1</dim>
				</port>
				<port id="3" precision="FP32">
					<dim>1</dim>
					<dim>1</dim>
					<dim>1</dim>
					<dim>1</dim>
				</port>
				<port id="4" precision="FP32">
					<dim>1</dim>
					<dim>1</dim>
					<dim>1</dim>
					<dim>1</dim>
				</port>
			</input>
			<output>
				<port id="5" precision="FP32">
					<dim>1</dim>
					<dim>64</dim>
					<dim>56</dim>
					<dim>56</dim>
				</port>
			</output>
		</layer>
		<layer id="17" name="Constant_3821" type="Const" version="opset1">
			<data element_type="u1" shape="64, 64, 1, 1" offset="38676" size="512"/>
			<output>
				<port id="0" precision="BIN">
					<dim>64</dim>
					<dim>64</dim>
					<dim>1</dim>
					<dim>1</dim>
				</port>
			</output>
		</layer>
		<layer id="18" name="Convolution_3153" type="BinaryConvolution" version="opset1">
			<data strides="1, 1" pads_begin="0, 0" pads_end="0, 0" dilations="1, 1" mode="xnor-popcount" pad_value="-1" auto_pad="explicit"/>
			<rt_info>
				<attribute name="fused_names" version="0" value="613, 614, 616, 617, 618, 619, 620, 621, 623, 624, 625, 626, 627"/>
			</rt_info>
			<input>
				<port id="0" precision="FP32">
					<dim>1</dim>
					<dim>64</dim>
					<dim>56</dim>
					<dim>56</dim>
				</port>
				<port id="1" precision="BIN">
					<dim>64</dim>
					<dim>64</dim>
					<dim>1</dim>
					<dim>1</dim>
				</port>
			</input>
			<output>
				<port id="2" precision="FP32">
					<dim>1</dim>
					<dim>64</dim>
					<dim>56</dim>
					<dim>56</dim>
				</port>
			</output>
		</layer>
		<layer id="19" name="Constant_3832" type="Const" version="opset1">
			<data element_type="f32" shape="" offset="39188" size="4"/>
			<output>
				<port id="0" precision="FP32"/>
			</output>
		</layer>
		<layer id="20" name="Multiply_5668" type="Multiply" version="opset1">
			<data auto_broadcast="numpy"/>
			<rt_info>
				<attribute name="fused_names" version="0" value="613, 614, 616, 617, 618, 619, 620, 621, 623, 624, 625, 626, 627"/>
			</rt_info>
			<input>
				<port id="0" precision="FP32">
					<dim>1</dim>
					<dim>64</dim>
					<dim>56</dim>
					<dim>56</dim>
				</port>
				<port id="1" precision="FP32"/>
			</input>
			<output>
				<port id="2" precision="FP32">
					<dim>1</dim>
					<dim>64</dim>
					<dim>56</dim>
					<dim>56</dim>
				</port>
			</output>
		</layer>
		<layer id="21" name="Constant_5670" type="Const" version="opset1">
			<data element_type="f32" shape="64, 1, 1" offset="39192" size="256"/>
			<output>
				<port id="0" precision="FP32">
					<dim>64</dim>
					<dim>1</dim>
					<dim>1</dim>
				</port>
			</output>
		</layer>
		<layer id="22" name="Multiply_3833" type="Add" version="opset1">
			<data auto_broadcast="numpy"/>
			<rt_info>
				<attribute name="fused_names" version="0" value="613, 614, 616, 617, 618, 619, 620, 621, 623, 624, 625, 626, 627"/>
			</rt_info>
			<input>
				<port id="0" precision="FP32">
					<dim>1</dim>
					<dim>64</dim>
					<dim>56</dim>
					<dim>56</dim>
				</port>
				<port id="1" precision="FP32">
					<dim>64</dim>
					<dim>1</dim>
					<dim>1</dim>
				</port>
			</input>
			<output>
				<port id="2" precision="FP32">
					<dim>1</dim>
					<dim>64</dim>
					<dim>56</dim>
					<dim>56</dim>
				</port>
			</output>
		</layer>
		<layer id="23" name="Reshape_3155" type="Const" version="opset1">
			<data element_type="f32" shape="1, 1, 1" offset="39448" size="4"/>
			<output>
				<port id="0" precision="FP32">
					<dim>1</dim>
					<dim>1</dim>
					<dim>1</dim>
				</port>
			</output>
		</layer>
		<layer id="24" name="Multiply_3158" type="Multiply" version="opset1">
			<data auto_broadcast="numpy"/>
			<rt_info>
				<attribute name="fused_names" version="0" value="613, 614, 616, 617, 618, 619, 620, 621, 623, 624, 625, 626, 627"/>
			</rt_info>
			<input>
				<port id="0" precision="FP32">
					<dim>1</dim>
					<dim>64</dim>
					<dim>56</dim>
					<dim>56</dim>
				</port>
				<port id="1" precision="FP32">
					<dim>1</dim>
					<dim>1</dim>
					<dim>1</dim>
				</port>
			</input>
			<output>
				<port id="2" precision="FP32">
					<dim>1</dim>
					<dim>64</dim>
					<dim>56</dim>
					<dim>56</dim>
				</port>
			</output>
		</layer>
		<layer id="25" name="Reshape_3159" type="Const" version="opset1">
			<data element_type="f32" shape="1, 1, 1" offset="39452" size="4"/>
			<output>
				<port id="0" precision="FP32">
					<dim>1</dim>
					<dim>1</dim>
					<dim>1</dim>
				</port>
			</output>
		</layer>
		<layer id="26" name="627" type="Multiply" version="opset1">
			<data auto_broadcast="numpy"/>
			<rt_info>
				<attribute name="fused_names" version="0" value="613, 614, 616, 617, 618, 619, 620, 621, 623, 624, 625, 626, 627"/>
			</rt_info>
			<input>
				<port id="0" precision="FP32">
					<dim>1</dim>
					<dim>64</dim>
					<dim>56</dim>
					<dim>56</dim>
				</port>
				<port id="1" precision="FP32">
					<dim>1</dim>
					<dim>1</dim>
					<dim>1</dim>
				</port>
			</input>
			<output>
				<port id="2" precision="FP32" names="627">
					<dim>1</dim>
					<dim>64</dim>
					<dim>56</dim>
					<dim>56</dim>
				</port>
			</output>
		</layer>
		<layer id="27" name="Reshape_4489" type="Const" version="opset1">
			<data element_type="f32" shape="1, 64, 1, 1" offset="39456" size="256"/>
			<output>
				<port id="0" precision="FP32">
					<dim>1</dim>
					<dim>64</dim>
					<dim>1</dim>
					<dim>1</dim>
				</port>
			</output>
		</layer>
		<layer id="28" name="Subtract_4492" type="Subtract" version="opset1">
			<data auto_broadcast="numpy"/>
			<rt_info>
				<attribute name="fused_names" version="0" value="628"/>
			</rt_info>
			<input>
				<port id="0" precision="FP32">
					<dim>1</dim>
					<dim>64</dim>
					<dim>56</dim>
					<dim>56</dim>
				</port>
				<port id="1" precision="FP32">
					<dim>1</dim>
					<dim>64</dim>
					<dim>1</dim>
					<dim>1</dim>
				</port>
			</input>
			<output>
				<port id="2" precision="FP32">
					<dim>1</dim>
					<dim>64</dim>
					<dim>56</dim>
					<dim>56</dim>
				</port>
			</output>
		</layer>
		<layer id="29" name="Reshape_4483" type="Const" version="opset1">
			<data element_type="f32" shape="1, 64, 1, 1" offset="39712" size="256"/>
			<output>
				<port id="0" precision="FP32">
					<dim>1</dim>
					<dim>64</dim>
					<dim>1</dim>
					<dim>1</dim>
				</port>
			</output>
		</layer>
		<layer id="30" name="Multiply_4493" type="Multiply" version="opset1">
			<data auto_broadcast="numpy"/>
			<rt_info>
				<attribute name="fused_names" version="0" value="628"/>
			</rt_info>
			<input>
				<port id="0" precision="FP32">
					<dim>1</dim>
					<dim>64</dim>
					<dim>56</dim>
					<dim>56</dim>
				</port>
				<port id="1" precision="FP32">
					<dim>1</dim>
					<dim>64</dim>
					<dim>1</dim>
					<dim>1</dim>
				</port>
			</input>
			<output>
				<port id="2" precision="FP32">
					<dim>1</dim>
					<dim>64</dim>
					<dim>56</dim>
					<dim>56</dim>
				</port>
			</output>
		</layer>
		<layer id="31" name="Reshape_4486" type="Const" version="opset1">
			<data element_type="f32" shape="1, 64, 1, 1" offset="39968" size="256"/>
			<output>
				<port id="0" precision="FP32">
					<dim>1</dim>
					<dim>64</dim>
					<dim>1</dim>
					<dim>1</dim>
				</port>
			</output>
		</layer>
		<layer id="32" name="628" type="Add" version="opset1">
			<data auto_broadcast="numpy"/>
			<rt_info>
				<attribute name="fused_names" version="0" value="628"/>
			</rt_info>
			<input>
				<port id="0" precision="FP32">
					<dim>1</dim>
					<dim>64</dim>
					<dim>56</dim>
					<dim>56</dim>
				</port>
				<port id="1" precision="FP32">
					<dim>1</dim>
					<dim>64</dim>
					<dim>1</dim>
					<dim>1</dim>
				</port>
			</input>
			<output>
				<port id="2" precision="FP32" names="628">
					<dim>1</dim>
					<dim>64</dim>
					<dim>56</dim>
					<dim>56</dim>
				</port>
			</output>
		</layer>
		<layer id="33" name="629" type="ReLU" version="opset1">
			<rt_info>
				<attribute name="fused_names" version="0" value="629"/>
			</rt_info>
			<input>
				<port id="0" precision="FP32">
					<dim>1</dim>
					<dim>64</dim>
					<dim>56</dim>
					<dim>56</dim>
				</port>
			</input>
			<output>
				<port id="1" precision="FP32" names="629">
					<dim>1</dim>
					<dim>64</dim>
					<dim>56</dim>
					<dim>56</dim>
				</port>
			</output>
		</layer>
		<layer id="34" name="635" type="Const" version="opset1">
			<data element_type="f32" shape="1, 64, 1, 1" offset="40224" size="256"/>
			<output>
				<port id="0" precision="FP32" names="635">
					<dim>1</dim>
					<dim>64</dim>
					<dim>1</dim>
					<dim>1</dim>
				</port>
			</output>
		</layer>
		<layer id="35" name="633" type="Const" version="opset1">
			<data element_type="f32" shape="1, 1, 1, 1" offset="38668" size="4"/>
			<output>
				<port id="0" precision="FP32">
					<dim>1</dim>
					<dim>1</dim>
					<dim>1</dim>
					<dim>1</dim>
				</port>
			</output>
		</layer>
		<layer id="36" name="636" type="Const" version="opset1">
			<data element_type="f32" shape="1, 1, 1, 1" offset="38672" size="4"/>
			<output>
				<port id="0" precision="FP32">
					<dim>1</dim>
					<dim>1</dim>
					<dim>1</dim>
					<dim>1</dim>
				</port>
			</output>
		</layer>
		<layer id="37" name="637" type="FakeQuantize" version="opset1">
			<data levels="2" auto_broadcast="numpy"/>
			<rt_info>
				<attribute name="fused_names" version="0" value="630, 631, 633, 634, 635, 636, 637, 638, 640, 641, 642, 643, 644"/>
			</rt_info>
			<input>
				<port id="0" precision="FP32">
					<dim>1</dim>
					<dim>64</dim>
					<dim>56</dim>
					<dim>56</dim>
				</port>
				<port id="1" precision="FP32">
					<dim>1</dim>
					<dim>64</dim>
					<dim>1</dim>
					<dim>1</dim>
				</port>
				<port id="2" precision="FP32">
					<dim>1</dim>
					<dim>64</dim>
					<dim>1</dim>
					<dim>1</dim>
				</port>
				<port id="3" precision="FP32">
					<dim>1</dim>
					<dim>1</dim>
					<dim>1</dim>
					<dim>1</dim>
				</port>
				<port id="4" precision="FP32">
					<dim>1</dim>
					<dim>1</dim>
					<dim>1</dim>
					<dim>1</dim>
				</port>
			</input>
			<output>
				<port id="5" precision="FP32">
					<dim>1</dim>
					<dim>64</dim>
					<dim>56</dim>
					<dim>56</dim>
				</port>
			</output>
		</layer>
		<layer id="38" name="Constant_3834" type="Const" version="opset1">
			<data element_type="u1" shape="64, 64, 3, 3" offset="40480" size="4608"/>
			<output>
				<port id="0" precision="BIN">
					<dim>64</dim>
					<dim>64</dim>
					<dim>3</dim>
					<dim>3</dim>
				</port>
			</output>
		</layer>
		<layer id="39" name="Convolution_3167" type="BinaryConvolution" version="opset1">
			<data strides="1, 1" pads_begin="1, 1" pads_end="1, 1" dilations="1, 1" mode="xnor-popcount" pad_value="-1" auto_pad="explicit"/>
			<rt_info>
				<attribute name="fused_names" version="0" value="630, 631, 633, 634, 635, 636, 637, 638, 640, 641, 642, 643, 644"/>
			</rt_info>
			<input>
				<port id="0" precision="FP32">
					<dim>1</dim>
					<dim>64</dim>
					<dim>56</dim>
					<dim>56</dim>
				</port>
				<port id="1" precision="BIN">
					<dim>64</dim>
					<dim>64</dim>
					<dim>3</dim>
					<dim>3</dim>
				</port>
			</input>
			<output>
				<port id="2" precision="FP32">
					<dim>1</dim>
					<dim>64</dim>
					<dim>56</dim>
					<dim>56</dim>
				</port>
			</output>
		</layer>
		<layer id="40" name="Constant_3845" type="Const" version="opset1">
			<data element_type="f32" shape="" offset="39188" size="4"/>
			<output>
				<port id="0" precision="FP32"/>
			</output>
		</layer>
		<layer id="41" name="Multiply_5672" type="Multiply" version="opset1">
			<data auto_broadcast="numpy"/>
			<rt_info>
				<attribute name="fused_names" version="0" value="630, 631, 633, 634, 635, 636, 637, 638, 640, 641, 642, 643, 644"/>
			</rt_info>
			<input>
				<port id="0" precision="FP32">
					<dim>1</dim>
					<dim>64</dim>
					<dim>56</dim>
					<dim>56</dim>
				</port>
				<port id="1" precision="FP32"/>
			</input>
			<output>
				<port id="2" precision="FP32">
					<dim>1</dim>
					<dim>64</dim>
					<dim>56</dim>
					<dim>56</dim>
				</port>
			</output>
		</layer>
		<layer id="42" name="Constant_5674" type="Const" version="opset1">
			<data element_type="f32" shape="64, 1, 1" offset="45088" size="256"/>
			<output>
				<port id="0" precision="FP32">
					<dim>64</dim>
					<dim>1</dim>
					<dim>1</dim>
				</port>
			</output>
		</layer>
		<layer id="43" name="Multiply_3846" type="Add" version="opset1">
			<data auto_broadcast="numpy"/>
			<rt_info>
				<attribute name="fused_names" version="0" value="630, 631, 633, 634, 635, 636, 637, 638, 640, 641, 642, 643, 644"/>
			</rt_info>
			<input>
				<port id="0" precision="FP32">
					<dim>1</dim>
					<dim>64</dim>
					<dim>56</dim>
					<dim>56</dim>
				</port>
				<port id="1" precision="FP32">
					<dim>64</dim>
					<dim>1</dim>
					<dim>1</dim>
				</port>
			</input>
			<output>
				<port id="2" precision="FP32">
					<dim>1</dim>
					<dim>64</dim>
					<dim>56</dim>
					<dim>56</dim>
				</port>
			</output>
		</layer>
		<layer id="44" name="Reshape_3169" type="Const" version="opset1">
			<data element_type="f32" shape="1, 1, 1" offset="45344" size="4"/>
			<output>
				<port id="0" precision="FP32">
					<dim>1</dim>
					<dim>1</dim>
					<dim>1</dim>
				</port>
			</output>
		</layer>
		<layer id="45" name="Multiply_3172" type="Multiply" version="opset1">
			<data auto_broadcast="numpy"/>
			<rt_info>
				<attribute name="fused_names" version="0" value="630, 631, 633, 634, 635, 636, 637, 638, 640, 641, 642, 643, 644"/>
			</rt_info>
			<input>
				<port id="0" precision="FP32">
					<dim>1</dim>
					<dim>64</dim>
					<dim>56</dim>
					<dim>56</dim>
				</port>
				<port id="1" precision="FP32">
					<dim>1</dim>
					<dim>1</dim>
					<dim>1</dim>
				</port>
			</input>
			<output>
				<port id="2" precision="FP32">
					<dim>1</dim>
					<dim>64</dim>
					<dim>56</dim>
					<dim>56</dim>
				</port>
			</output>
		</layer>
		<layer id="46" name="Reshape_3173" type="Const" version="opset1">
			<data element_type="f32" shape="1, 1, 1" offset="45348" size="4"/>
			<output>
				<port id="0" precision="FP32">
					<dim>1</dim>
					<dim>1</dim>
					<dim>1</dim>
				</port>
			</output>
		</layer>
		<layer id="47" name="644" type="Multiply" version="opset1">
			<data auto_broadcast="numpy"/>
			<rt_info>
				<attribute name="fused_names" version="0" value="630, 631, 633, 634, 635, 636, 637, 638, 640, 641, 642, 643, 644"/>
			</rt_info>
			<input>
				<port id="0" precision="FP32">
					<dim>1</dim>
					<dim>64</dim>
					<dim>56</dim>
					<dim>56</dim>
				</port>
				<port id="1" precision="FP32">
					<dim>1</dim>
					<dim>1</dim>
					<dim>1</dim>
				</port>
			</input>
			<output>
				<port id="2" precision="FP32" names="644">
					<dim>1</dim>
					<dim>64</dim>
					<dim>56</dim>
					<dim>56</dim>
				</port>
			</output>
		</layer>
		<layer id="48" name="Reshape_4512" type="Const" version="opset1">
			<data element_type="f32" shape="1, 64, 1, 1" offset="45352" size="256"/>
			<output>
				<port id="0" precision="FP32">
					<dim>1</dim>
					<dim>64</dim>
					<dim>1</dim>
					<dim>1</dim>
				</port>
			</output>
		</layer>
		<layer id="49" name="Subtract_4515" type="Subtract" version="opset1">
			<data auto_broadcast="numpy"/>
			<rt_info>
				<attribute name="fused_names" version="0" value="645"/>
			</rt_info>
			<input>
				<port id="0" precision="FP32">
					<dim>1</dim>
					<dim>64</dim>
					<dim>56</dim>
					<dim>56</dim>
				</port>
				<port id="1" precision="FP32">
					<dim>1</dim>
					<dim>64</dim>
					<dim>1</dim>
					<dim>1</dim>
				</port>
			</input>
			<output>
				<port id="2" precision="FP32">
					<dim>1</dim>
					<dim>64</dim>
					<dim>56</dim>
					<dim>56</dim>
				</port>
			</output>
		</layer>
		<layer id="50" name="Reshape_4506" type="Const" version="opset1">
			<data element_type="f32" shape="1, 64, 1, 1" offset="45608" size="256"/>
			<output>
				<port id="0" precision="FP32">
					<dim>1</dim>
					<dim>64</dim>
					<dim>1</dim>
					<dim>1</dim>
				</port>
			</output>
		</layer>
		<layer id="51" name="Multiply_4516" type="Multiply" version="opset1">
			<data auto_broadcast="numpy"/>
			<rt_info>
				<attribute name="fused_names" version="0" value="645"/>
			</rt_info>
			<input>
				<port id="0" precision="FP32">
					<dim>1</dim>
					<dim>64</dim>
					<dim>56</dim>
					<dim>56</dim>
				</port>
				<port id="1" precision="FP32">
					<dim>1</dim>
					<dim>64</dim>
					<dim>1</dim>
					<dim>1</dim>
				</port>
			</input>
			<output>
				<port id="2" precision="FP32">
					<dim>1</dim>
					<dim>64</dim>
					<dim>56</dim>
					<dim>56</dim>
				</port>
			</output>
		</layer>
		<layer id="52" name="Reshape_4509" type="Const" version="opset1">
			<data element_type="f32" shape="1, 64, 1, 1" offset="45864" size="256"/>
			<output>
				<port id="0" precision="FP32">
					<dim>1</dim>
					<dim>64</dim>
					<dim>1</dim>
					<dim>1</dim>
				</port>
			</output>
		</layer>
		<layer id="53" name="645" type="Add" version="opset1">
			<data auto_broadcast="numpy"/>
			<rt_info>
				<attribute name="fused_names" version="0" value="645"/>
			</rt_info>
			<input>
				<port id="0" precision="FP32">
					<dim>1</dim>
					<dim>64</dim>
					<dim>56</dim>
					<dim>56</dim>
				</port>
				<port id="1" precision="FP32">
					<dim>1</dim>
					<dim>64</dim>
					<dim>1</dim>
					<dim>1</dim>
				</port>
			</input>
			<output>
				<port id="2" precision="FP32" names="645">
					<dim>1</dim>
					<dim>64</dim>
					<dim>56</dim>
					<dim>56</dim>
				</port>
			</output>
		</layer>
		<layer id="54" name="646" type="ReLU" version="opset1">
			<rt_info>
				<attribute name="fused_names" version="0" value="646"/>
			</rt_info>
			<input>
				<port id="0" precision="FP32">
					<dim>1</dim>
					<dim>64</dim>
					<dim>56</dim>
					<dim>56</dim>
				</port>
			</input>
			<output>
				<port id="1" precision="FP32" names="646">
					<dim>1</dim>
					<dim>64</dim>
					<dim>56</dim>
					<dim>56</dim>
				</port>
			</output>
		</layer>
		<layer id="55" name="652" type="Const" version="opset1">
			<data element_type="f32" shape="1, 64, 1, 1" offset="46120" size="256"/>
			<output>
				<port id="0" precision="FP32" names="652">
					<dim>1</dim>
					<dim>64</dim>
					<dim>1</dim>
					<dim>1</dim>
				</port>
			</output>
		</layer>
		<layer id="56" name="650" type="Const" version="opset1">
			<data element_type="f32" shape="1, 1, 1, 1" offset="38668" size="4"/>
			<output>
				<port id="0" precision="FP32">
					<dim>1</dim>
					<dim>1</dim>
					<dim>1</dim>
					<dim>1</dim>
				</port>
			</output>
		</layer>
		<layer id="57" name="653" type="Const" version="opset1">
			<data element_type="f32" shape="1, 1, 1, 1" offset="38672" size="4"/>
			<output>
				<port id="0" precision="FP32">
					<dim>1</dim>
					<dim>1</dim>
					<dim>1</dim>
					<dim>1</dim>
				</port>
			</output>
		</layer>
		<layer id="58" name="654" type="FakeQuantize" version="opset1">
			<data levels="2" auto_broadcast="numpy"/>
			<rt_info>
				<attribute name="fused_names" version="0" value="647, 648, 650, 651, 652, 653, 654, 655, 657, 658, 659, 660, 661"/>
			</rt_info>
			<input>
				<port id="0" precision="FP32">
					<dim>1</dim>
					<dim>64</dim>
					<dim>56</dim>
					<dim>56</dim>
				</port>
				<port id="1" precision="FP32">
					<dim>1</dim>
					<dim>64</dim>
					<dim>1</dim>
					<dim>1</dim>
				</port>
				<port id="2" precision="FP32">
					<dim>1</dim>
					<dim>64</dim>
					<dim>1</dim>
					<dim>1</dim>
				</port>
				<port id="3" precision="FP32">
					<dim>1</dim>
					<dim>1</dim>
					<dim>1</dim>
					<dim>1</dim>
				</port>
				<port id="4" precision="FP32">
					<dim>1</dim>
					<dim>1</dim>
					<dim>1</dim>
					<dim>1</dim>
				</port>
			</input>
			<output>
				<port id="5" precision="FP32">
					<dim>1</dim>
					<dim>64</dim>
					<dim>56</dim>
					<dim>56</dim>
				</port>
			</output>
		</layer>
		<layer id="59" name="Constant_3847" type="Const" version="opset1">
			<data element_type="u1" shape="256, 64, 1, 1" offset="46376" size="2048"/>
			<output>
				<port id="0" precision="BIN">
					<dim>256</dim>
					<dim>64</dim>
					<dim>1</dim>
					<dim>1</dim>
				</port>
			</output>
		</layer>
		<layer id="60" name="Convolution_3181" type="BinaryConvolution" version="opset1">
			<data strides="1, 1" pads_begin="0, 0" pads_end="0, 0" dilations="1, 1" mode="xnor-popcount" pad_value="-1" auto_pad="explicit"/>
			<rt_info>
				<attribute name="fused_names" version="0" value="647, 648, 650, 651, 652, 653, 654, 655, 657, 658, 659, 660, 661"/>
			</rt_info>
			<input>
				<port id="0" precision="FP32">
					<dim>1</dim>
					<dim>64</dim>
					<dim>56</dim>
					<dim>56</dim>
				</port>
				<port id="1" precision="BIN">
					<dim>256</dim>
					<dim>64</dim>
					<dim>1</dim>
					<dim>1</dim>
				</port>
			</input>
			<output>
				<port id="2" precision="FP32">
					<dim>1</dim>
					<dim>256</dim>
					<dim>56</dim>
					<dim>56</dim>
				</port>
			</output>
		</layer>
		<layer id="61" name="Constant_3858" type="Const" version="opset1">
			<data element_type="f32" shape="" offset="39188" size="4"/>
			<output>
				<port id="0" precision="FP32"/>
			</output>
		</layer>
		<layer id="62" name="Multiply_5676" type="Multiply" version="opset1">
			<data auto_broadcast="numpy"/>
			<rt_info>
				<attribute name="fused_names" version="0" value="647, 648, 650, 651, 652, 653, 654, 655, 657, 658, 659, 660, 661"/>
			</rt_info>
			<input>
				<port id="0" precision="FP32">
					<dim>1</dim>
					<dim>256</dim>
					<dim>56</dim>
					<dim>56</dim>
				</port>
				<port id="1" precision="FP32"/>
			</input>
			<output>
				<port id="2" precision="FP32">
					<dim>1</dim>
					<dim>256</dim>
					<dim>56</dim>
					<dim>56</dim>
				</port>
			</output>
		</layer>
		<layer id="63" name="Constant_5678" type="Const" version="opset1">
			<data element_type="f32" shape="256, 1, 1" offset="48424" size="1024"/>
			<output>
				<port id="0" precision="FP32">
					<dim>256</dim>
					<dim>1</dim>
					<dim>1</dim>
				</port>
			</output>
		</layer>
		<layer id="64" name="Multiply_3859" type="Add" version="opset1">
			<data auto_broadcast="numpy"/>
			<rt_info>
				<attribute name="fused_names" version="0" value="647, 648, 650, 651, 652, 653, 654, 655, 657, 658, 659, 660, 661"/>
			</rt_info>
			<input>
				<port id="0" precision="FP32">
					<dim>1</dim>
					<dim>256</dim>
					<dim>56</dim>
					<dim>56</dim>
				</port>
				<port id="1" precision="FP32">
					<dim>256</dim>
					<dim>1</dim>
					<dim>1</dim>
				</port>
			</input>
			<output>
				<port id="2" precision="FP32">
					<dim>1</dim>
					<dim>256</dim>
					<dim>56</dim>
					<dim>56</dim>
				</port>
			</output>
		</layer>
		<layer id="65" name="Reshape_3183" type="Const" version="opset1">
			<data element_type="f32" shape="1, 1, 1" offset="49448" size="4"/>
			<output>
				<port id="0" precision="FP32">
					<dim>1</dim>
					<dim>1</dim>
					<dim>1</dim>
				</port>
			</output>
		</layer>
		<layer id="66" name="Multiply_3186" type="Multiply" version="opset1">
			<data auto_broadcast="numpy"/>
			<rt_info>
				<attribute name="fused_names" version="0" value="647, 648, 650, 651, 652, 653, 654, 655, 657, 658, 659, 660, 661"/>
			</rt_info>
			<input>
				<port id="0" precision="FP32">
					<dim>1</dim>
					<dim>256</dim>
					<dim>56</dim>
					<dim>56</dim>
				</port>
				<port id="1" precision="FP32">
					<dim>1</dim>
					<dim>1</dim>
					<dim>1</dim>
				</port>
			</input>
			<output>
				<port id="2" precision="FP32">
					<dim>1</dim>
					<dim>256</dim>
					<dim>56</dim>
					<dim>56</dim>
				</port>
			</output>
		</layer>
		<layer id="67" name="Reshape_3187" type="Const" version="opset1">
			<data element_type="f32" shape="1, 1, 1" offset="49452" size="4"/>
			<output>
				<port id="0" precision="FP32">
					<dim>1</dim>
					<dim>1</dim>
					<dim>1</dim>
				</port>
			</output>
		</layer>
		<layer id="68" name="661" type="Multiply" version="opset1">
			<data auto_broadcast="numpy"/>
			<rt_info>
				<attribute name="fused_names" version="0" value="647, 648, 650, 651, 652, 653, 654, 655, 657, 658, 659, 660, 661"/>
			</rt_info>
			<input>
				<port id="0" precision="FP32">
					<dim>1</dim>
					<dim>256</dim>
					<dim>56</dim>
					<dim>56</dim>
				</port>
				<port id="1" precision="FP32">
					<dim>1</dim>
					<dim>1</dim>
					<dim>1</dim>
				</port>
			</input>
			<output>
				<port id="2" precision="FP32" names="661">
					<dim>1</dim>
					<dim>256</dim>
					<dim>56</dim>
					<dim>56</dim>
				</port>
			</output>
		</layer>
		<layer id="69" name="Reshape_4535" type="Const" version="opset1">
			<data element_type="f32" shape="1, 256, 1, 1" offset="49456" size="1024"/>
			<output>
				<port id="0" precision="FP32">
					<dim>1</dim>
					<dim>256</dim>
					<dim>1</dim>
					<dim>1</dim>
				</port>
			</output>
		</layer>
		<layer id="70" name="Subtract_4538" type="Subtract" version="opset1">
			<data auto_broadcast="numpy"/>
			<rt_info>
				<attribute name="fused_names" version="0" value="662"/>
			</rt_info>
			<input>
				<port id="0" precision="FP32">
					<dim>1</dim>
					<dim>256</dim>
					<dim>56</dim>
					<dim>56</dim>
				</port>
				<port id="1" precision="FP32">
					<dim>1</dim>
					<dim>256</dim>
					<dim>1</dim>
					<dim>1</dim>
				</port>
			</input>
			<output>
				<port id="2" precision="FP32">
					<dim>1</dim>
					<dim>256</dim>
					<dim>56</dim>
					<dim>56</dim>
				</port>
			</output>
		</layer>
		<layer id="71" name="Reshape_4529" type="Const" version="opset1">
			<data element_type="f32" shape="1, 256, 1, 1" offset="50480" size="1024"/>
			<output>
				<port id="0" precision="FP32">
					<dim>1</dim>
					<dim>256</dim>
					<dim>1</dim>
					<dim>1</dim>
				</port>
			</output>
		</layer>
		<layer id="72" name="Multiply_4539" type="Multiply" version="opset1">
			<data auto_broadcast="numpy"/>
			<rt_info>
				<attribute name="fused_names" version="0" value="662"/>
			</rt_info>
			<input>
				<port id="0" precision="FP32">
					<dim>1</dim>
					<dim>256</dim>
					<dim>56</dim>
					<dim>56</dim>
				</port>
				<port id="1" precision="FP32">
					<dim>1</dim>
					<dim>256</dim>
					<dim>1</dim>
					<dim>1</dim>
				</port>
			</input>
			<output>
				<port id="2" precision="FP32">
					<dim>1</dim>
					<dim>256</dim>
					<dim>56</dim>
					<dim>56</dim>
				</port>
			</output>
		</layer>
		<layer id="73" name="Reshape_4532" type="Const" version="opset1">
			<data element_type="f32" shape="1, 256, 1, 1" offset="51504" size="1024"/>
			<output>
				<port id="0" precision="FP32">
					<dim>1</dim>
					<dim>256</dim>
					<dim>1</dim>
					<dim>1</dim>
				</port>
			</output>
		</layer>
		<layer id="74" name="662" type="Add" version="opset1">
			<data auto_broadcast="numpy"/>
			<rt_info>
				<attribute name="fused_names" version="0" value="662"/>
			</rt_info>
			<input>
				<port id="0" precision="FP32">
					<dim>1</dim>
					<dim>256</dim>
					<dim>56</dim>
					<dim>56</dim>
				</port>
				<port id="1" precision="FP32">
					<dim>1</dim>
					<dim>256</dim>
					<dim>1</dim>
					<dim>1</dim>
				</port>
			</input>
			<output>
				<port id="2" precision="FP32" names="662">
					<dim>1</dim>
					<dim>256</dim>
					<dim>56</dim>
					<dim>56</dim>
				</port>
			</output>
		</layer>
		<layer id="75" name="43" type="Const" version="opset1">
			<data element_type="f32" shape="256, 64, 1, 1" offset="52528" size="65536"/>
			<rt_info>
				<attribute name="fused_names" version="0" value="43"/>
			</rt_info>
			<output>
				<port id="0" precision="FP32" names="43">
					<dim>256</dim>
					<dim>64</dim>
					<dim>1</dim>
					<dim>1</dim>
				</port>
			</output>
		</layer>
		<layer id="76" name="663" type="Convolution" version="opset1">
			<data strides="1, 1" dilations="1, 1" pads_begin="0, 0" pads_end="0, 0" auto_pad="explicit"/>
			<rt_info>
				<attribute name="fused_names" version="0" value="663"/>
			</rt_info>
			<input>
				<port id="0" precision="FP32">
					<dim>1</dim>
					<dim>64</dim>
					<dim>56</dim>
					<dim>56</dim>
				</port>
				<port id="1" precision="FP32">
					<dim>256</dim>
					<dim>64</dim>
					<dim>1</dim>
					<dim>1</dim>
				</port>
			</input>
			<output>
				<port id="2" precision="FP32" names="663">
					<dim>1</dim>
					<dim>256</dim>
					<dim>56</dim>
					<dim>56</dim>
				</port>
			</output>
		</layer>
		<layer id="77" name="Reshape_4558" type="Const" version="opset1">
			<data element_type="f32" shape="1, 256, 1, 1" offset="118064" size="1024"/>
			<output>
				<port id="0" precision="FP32">
					<dim>1</dim>
					<dim>256</dim>
					<dim>1</dim>
					<dim>1</dim>
				</port>
			</output>
		</layer>
		<layer id="78" name="Subtract_4561" type="Subtract" version="opset1">
			<data auto_broadcast="numpy"/>
			<rt_info>
				<attribute name="fused_names" version="0" value="664"/>
			</rt_info>
			<input>
				<port id="0" precision="FP32">
					<dim>1</dim>
					<dim>256</dim>
					<dim>56</dim>
					<dim>56</dim>
				</port>
				<port id="1" precision="FP32">
					<dim>1</dim>
					<dim>256</dim>
					<dim>1</dim>
					<dim>1</dim>
				</port>
			</input>
			<output>
				<port id="2" precision="FP32">
					<dim>1</dim>
					<dim>256</dim>
					<dim>56</dim>
					<dim>56</dim>
				</port>
			</output>
		</layer>
		<layer id="79" name="Reshape_4552" type="Const" version="opset1">
			<data element_type="f32" shape="1, 256, 1, 1" offset="119088" size="1024"/>
			<output>
				<port id="0" precision="FP32">
					<dim>1</dim>
					<dim>256</dim>
					<dim>1</dim>
					<dim>1</dim>
				</port>
			</output>
		</layer>
		<layer id="80" name="Multiply_4562" type="Multiply" version="opset1">
			<data auto_broadcast="numpy"/>
			<rt_info>
				<attribute name="fused_names" version="0" value="664"/>
			</rt_info>
			<input>
				<port id="0" precision="FP32">
					<dim>1</dim>
					<dim>256</dim>
					<dim>56</dim>
					<dim>56</dim>
				</port>
				<port id="1" precision="FP32">
					<dim>1</dim>
					<dim>256</dim>
					<dim>1</dim>
					<dim>1</dim>
				</port>
			</input>
			<output>
				<port id="2" precision="FP32">
					<dim>1</dim>
					<dim>256</dim>
					<dim>56</dim>
					<dim>56</dim>
				</port>
			</output>
		</layer>
		<layer id="81" name="Reshape_4555" type="Const" version="opset1">
			<data element_type="f32" shape="1, 256, 1, 1" offset="120112" size="1024"/>
			<output>
				<port id="0" precision="FP32">
					<dim>1</dim>
					<dim>256</dim>
					<dim>1</dim>
					<dim>1</dim>
				</port>
			</output>
		</layer>
		<layer id="82" name="664" type="Add" version="opset1">
			<data auto_broadcast="numpy"/>
			<rt_info>
				<attribute name="fused_names" version="0" value="664"/>
			</rt_info>
			<input>
				<port id="0" precision="FP32">
					<dim>1</dim>
					<dim>256</dim>
					<dim>56</dim>
					<dim>56</dim>
				</port>
				<port id="1" precision="FP32">
					<dim>1</dim>
					<dim>256</dim>
					<dim>1</dim>
					<dim>1</dim>
				</port>
			</input>
			<output>
				<port id="2" precision="FP32" names="664">
					<dim>1</dim>
					<dim>256</dim>
					<dim>56</dim>
					<dim>56</dim>
				</port>
			</output>
		</layer>
		<layer id="83" name="665" type="Add" version="opset1">
			<data auto_broadcast="numpy"/>
			<rt_info>
				<attribute name="fused_names" version="0" value="665"/>
			</rt_info>
			<input>
				<port id="0" precision="FP32">
					<dim>1</dim>
					<dim>256</dim>
					<dim>56</dim>
					<dim>56</dim>
				</port>
				<port id="1" precision="FP32">
					<dim>1</dim>
					<dim>256</dim>
					<dim>56</dim>
					<dim>56</dim>
				</port>
			</input>
			<output>
				<port id="2" precision="FP32" names="665">
					<dim>1</dim>
					<dim>256</dim>
					<dim>56</dim>
					<dim>56</dim>
				</port>
			</output>
		</layer>
		<layer id="84" name="666" type="ReLU" version="opset1">
			<rt_info>
				<attribute name="fused_names" version="0" value="666"/>
			</rt_info>
			<input>
				<port id="0" precision="FP32">
					<dim>1</dim>
					<dim>256</dim>
					<dim>56</dim>
					<dim>56</dim>
				</port>
			</input>
			<output>
				<port id="1" precision="FP32" names="666">
					<dim>1</dim>
					<dim>256</dim>
					<dim>56</dim>
					<dim>56</dim>
				</port>
			</output>
		</layer>
		<layer id="85" name="672" type="Const" version="opset1">
			<data element_type="f32" shape="1, 256, 1, 1" offset="121136" size="1024"/>
			<output>
				<port id="0" precision="FP32" names="672">
					<dim>1</dim>
					<dim>256</dim>
					<dim>1</dim>
					<dim>1</dim>
				</port>
			</output>
		</layer>
		<layer id="86" name="670" type="Const" version="opset1">
			<data element_type="f32" shape="1, 1, 1, 1" offset="38668" size="4"/>
			<output>
				<port id="0" precision="FP32">
					<dim>1</dim>
					<dim>1</dim>
					<dim>1</dim>
					<dim>1</dim>
				</port>
			</output>
		</layer>
		<layer id="87" name="673" type="Const" version="opset1">
			<data element_type="f32" shape="1, 1, 1, 1" offset="38672" size="4"/>
			<output>
				<port id="0" precision="FP32">
					<dim>1</dim>
					<dim>1</dim>
					<dim>1</dim>
					<dim>1</dim>
				</port>
			</output>
		</layer>
		<layer id="88" name="674" type="FakeQuantize" version="opset1">
			<data levels="2" auto_broadcast="numpy"/>
			<rt_info>
				<attribute name="fused_names" version="0" value="667, 668, 670, 671, 672, 673, 674, 675, 677, 678, 679, 680, 681"/>
			</rt_info>
			<input>
				<port id="0" precision="FP32">
					<dim>1</dim>
					<dim>256</dim>
					<dim>56</dim>
					<dim>56</dim>
				</port>
				<port id="1" precision="FP32">
					<dim>1</dim>
					<dim>256</dim>
					<dim>1</dim>
					<dim>1</dim>
				</port>
				<port id="2" precision="FP32">
					<dim>1</dim>
					<dim>256</dim>
					<dim>1</dim>
					<dim>1</dim>
				</port>
				<port id="3" precision="FP32">
					<dim>1</dim>
					<dim>1</dim>
					<dim>1</dim>
					<dim>1</dim>
				</port>
				<port id="4" precision="FP32">
					<dim>1</dim>
					<dim>1</dim>
					<dim>1</dim>
					<dim>1</dim>
				</port>
			</input>
			<output>
				<port id="5" precision="FP32">
					<dim>1</dim>
					<dim>256</dim>
					<dim>56</dim>
					<dim>56</dim>
				</port>
			</output>
		</layer>
		<layer id="89" name="Constant_3860" type="Const" version="opset1">
			<data element_type="u1" shape="64, 256, 1, 1" offset="122160" size="2048"/>
			<output>
				<port id="0" precision="BIN">
					<dim>64</dim>
					<dim>256</dim>
					<dim>1</dim>
					<dim>1</dim>
				</port>
			</output>
		</layer>
		<layer id="90" name="Convolution_3195" type="BinaryConvolution" version="opset1">
			<data strides="1, 1" pads_begin="0, 0" pads_end="0, 0" dilations="1, 1" mode="xnor-popcount" pad_value="-1" auto_pad="explicit"/>
			<rt_info>
				<attribute name="fused_names" version="0" value="667, 668, 670, 671, 672, 673, 674, 675, 677, 678, 679, 680, 681"/>
			</rt_info>
			<input>
				<port id="0" precision="FP32">
					<dim>1</dim>
					<dim>256</dim>
					<dim>56</dim>
					<dim>56</dim>
				</port>
				<port id="1" precision="BIN">
					<dim>64</dim>
					<dim>256</dim>
					<dim>1</dim>
					<dim>1</dim>
				</port>
			</input>
			<output>
				<port id="2" precision="FP32">
					<dim>1</dim>
					<dim>64</dim>
					<dim>56</dim>
					<dim>56</dim>
				</port>
			</output>
		</layer>
		<layer id="91" name="Constant_3871" type="Const" version="opset1">
			<data element_type="f32" shape="" offset="39188" size="4"/>
			<output>
				<port id="0" precision="FP32"/>
			</output>
		</layer>
		<layer id="92" name="Multiply_5680" type="Multiply" version="opset1">
			<data auto_broadcast="numpy"/>
			<rt_info>
				<attribute name="fused_names" version="0" value="667, 668, 670, 671, 672, 673, 674, 675, 677, 678, 679, 680, 681"/>
			</rt_info>
			<input>
				<port id="0" precision="FP32">
					<dim>1</dim>
					<dim>64</dim>
					<dim>56</dim>
					<dim>56</dim>
				</port>
				<port id="1" precision="FP32"/>
			</input>
			<output>
				<port id="2" precision="FP32">
					<dim>1</dim>
					<dim>64</dim>
					<dim>56</dim>
					<dim>56</dim>
				</port>
			</output>
		</layer>
		<layer id="93" name="Constant_5682" type="Const" version="opset1">
			<data element_type="f32" shape="64, 1, 1" offset="124208" size="256"/>
			<output>
				<port id="0" precision="FP32">
					<dim>64</dim>
					<dim>1</dim>
					<dim>1</dim>
				</port>
			</output>
		</layer>
		<layer id="94" name="Multiply_3872" type="Add" version="opset1">
			<data auto_broadcast="numpy"/>
			<rt_info>
				<attribute name="fused_names" version="0" value="667, 668, 670, 671, 672, 673, 674, 675, 677, 678, 679, 680, 681"/>
			</rt_info>
			<input>
				<port id="0" precision="FP32">
					<dim>1</dim>
					<dim>64</dim>
					<dim>56</dim>
					<dim>56</dim>
				</port>
				<port id="1" precision="FP32">
					<dim>64</dim>
					<dim>1</dim>
					<dim>1</dim>
				</port>
			</input>
			<output>
				<port id="2" precision="FP32">
					<dim>1</dim>
					<dim>64</dim>
					<dim>56</dim>
					<dim>56</dim>
				</port>
			</output>
		</layer>
		<layer id="95" name="Reshape_3197" type="Const" version="opset1">
			<data element_type="f32" shape="1, 1, 1" offset="124464" size="4"/>
			<output>
				<port id="0" precision="FP32">
					<dim>1</dim>
					<dim>1</dim>
					<dim>1</dim>
				</port>
			</output>
		</layer>
		<layer id="96" name="Multiply_3200" type="Multiply" version="opset1">
			<data auto_broadcast="numpy"/>
			<rt_info>
				<attribute name="fused_names" version="0" value="667, 668, 670, 671, 672, 673, 674, 675, 677, 678, 679, 680, 681"/>
			</rt_info>
			<input>
				<port id="0" precision="FP32">
					<dim>1</dim>
					<dim>64</dim>
					<dim>56</dim>
					<dim>56</dim>
				</port>
				<port id="1" precision="FP32">
					<dim>1</dim>
					<dim>1</dim>
					<dim>1</dim>
				</port>
			</input>
			<output>
				<port id="2" precision="FP32">
					<dim>1</dim>
					<dim>64</dim>
					<dim>56</dim>
					<dim>56</dim>
				</port>
			</output>
		</layer>
		<layer id="97" name="Reshape_3201" type="Const" version="opset1">
			<data element_type="f32" shape="1, 1, 1" offset="124468" size="4"/>
			<output>
				<port id="0" precision="FP32">
					<dim>1</dim>
					<dim>1</dim>
					<dim>1</dim>
				</port>
			</output>
		</layer>
		<layer id="98" name="681" type="Multiply" version="opset1">
			<data auto_broadcast="numpy"/>
			<rt_info>
				<attribute name="fused_names" version="0" value="667, 668, 670, 671, 672, 673, 674, 675, 677, 678, 679, 680, 681"/>
			</rt_info>
			<input>
				<port id="0" precision="FP32">
					<dim>1</dim>
					<dim>64</dim>
					<dim>56</dim>
					<dim>56</dim>
				</port>
				<port id="1" precision="FP32">
					<dim>1</dim>
					<dim>1</dim>
					<dim>1</dim>
				</port>
			</input>
			<output>
				<port id="2" precision="FP32" names="681">
					<dim>1</dim>
					<dim>64</dim>
					<dim>56</dim>
					<dim>56</dim>
				</port>
			</output>
		</layer>
		<layer id="99" name="Reshape_4581" type="Const" version="opset1">
			<data element_type="f32" shape="1, 64, 1, 1" offset="124472" size="256"/>
			<output>
				<port id="0" precision="FP32">
					<dim>1</dim>
					<dim>64</dim>
					<dim>1</dim>
					<dim>1</dim>
				</port>
			</output>
		</layer>
		<layer id="100" name="Subtract_4584" type="Subtract" version="opset1">
			<data auto_broadcast="numpy"/>
			<rt_info>
				<attribute name="fused_names" version="0" value="682"/>
			</rt_info>
			<input>
				<port id="0" precision="FP32">
					<dim>1</dim>
					<dim>64</dim>
					<dim>56</dim>
					<dim>56</dim>
				</port>
				<port id="1" precision="FP32">
					<dim>1</dim>
					<dim>64</dim>
					<dim>1</dim>
					<dim>1</dim>
				</port>
			</input>
			<output>
				<port id="2" precision="FP32">
					<dim>1</dim>
					<dim>64</dim>
					<dim>56</dim>
					<dim>56</dim>
				</port>
			</output>
		</layer>
		<layer id="101" name="Reshape_4575" type="Const" version="opset1">
			<data element_type="f32" shape="1, 64, 1, 1" offset="124728" size="256"/>
			<output>
				<port id="0" precision="FP32">
					<dim>1</dim>
					<dim>64</dim>
					<dim>1</dim>
					<dim>1</dim>
				</port>
			</output>
		</layer>
		<layer id="102" name="Multiply_4585" type="Multiply" version="opset1">
			<data auto_broadcast="numpy"/>
			<rt_info>
				<attribute name="fused_names" version="0" value="682"/>
			</rt_info>
			<input>
				<port id="0" precision="FP32">
					<dim>1</dim>
					<dim>64</dim>
					<dim>56</dim>
					<dim>56</dim>
				</port>
				<port id="1" precision="FP32">
					<dim>1</dim>
					<dim>64</dim>
					<dim>1</dim>
					<dim>1</dim>
				</port>
			</input>
			<output>
				<port id="2" precision="FP32">
					<dim>1</dim>
					<dim>64</dim>
					<dim>56</dim>
					<dim>56</dim>
				</port>
			</output>
		</layer>
		<layer id="103" name="Reshape_4578" type="Const" version="opset1">
			<data element_type="f32" shape="1, 64, 1, 1" offset="124984" size="256"/>
			<output>
				<port id="0" precision="FP32">
					<dim>1</dim>
					<dim>64</dim>
					<dim>1</dim>
					<dim>1</dim>
				</port>
			</output>
		</layer>
		<layer id="104" name="682" type="Add" version="opset1">
			<data auto_broadcast="numpy"/>
			<rt_info>
				<attribute name="fused_names" version="0" value="682"/>
			</rt_info>
			<input>
				<port id="0" precision="FP32">
					<dim>1</dim>
					<dim>64</dim>
					<dim>56</dim>
					<dim>56</dim>
				</port>
				<port id="1" precision="FP32">
					<dim>1</dim>
					<dim>64</dim>
					<dim>1</dim>
					<dim>1</dim>
				</port>
			</input>
			<output>
				<port id="2" precision="FP32" names="682">
					<dim>1</dim>
					<dim>64</dim>
					<dim>56</dim>
					<dim>56</dim>
				</port>
			</output>
		</layer>
		<layer id="105" name="683" type="ReLU" version="opset1">
			<rt_info>
				<attribute name="fused_names" version="0" value="683"/>
			</rt_info>
			<input>
				<port id="0" precision="FP32">
					<dim>1</dim>
					<dim>64</dim>
					<dim>56</dim>
					<dim>56</dim>
				</port>
			</input>
			<output>
				<port id="1" precision="FP32" names="683">
					<dim>1</dim>
					<dim>64</dim>
					<dim>56</dim>
					<dim>56</dim>
				</port>
			</output>
		</layer>
		<layer id="106" name="689" type="Const" version="opset1">
			<data element_type="f32" shape="1, 64, 1, 1" offset="125240" size="256"/>
			<output>
				<port id="0" precision="FP32" names="689">
					<dim>1</dim>
					<dim>64</dim>
					<dim>1</dim>
					<dim>1</dim>
				</port>
			</output>
		</layer>
		<layer id="107" name="687" type="Const" version="opset1">
			<data element_type="f32" shape="1, 1, 1, 1" offset="38668" size="4"/>
			<output>
				<port id="0" precision="FP32">
					<dim>1</dim>
					<dim>1</dim>
					<dim>1</dim>
					<dim>1</dim>
				</port>
			</output>
		</layer>
		<layer id="108" name="690" type="Const" version="opset1">
			<data element_type="f32" shape="1, 1, 1, 1" offset="38672" size="4"/>
			<output>
				<port id="0" precision="FP32">
					<dim>1</dim>
					<dim>1</dim>
					<dim>1</dim>
					<dim>1</dim>
				</port>
			</output>
		</layer>
		<layer id="109" name="691" type="FakeQuantize" version="opset1">
			<data levels="2" auto_broadcast="numpy"/>
			<rt_info>
				<attribute name="fused_names" version="0" value="684, 685, 687, 688, 689, 690, 691, 692, 694, 695, 696, 697, 698"/>
			</rt_info>
			<input>
				<port id="0" precision="FP32">
					<dim>1</dim>
					<dim>64</dim>
					<dim>56</dim>
					<dim>56</dim>
				</port>
				<port id="1" precision="FP32">
					<dim>1</dim>
					<dim>64</dim>
					<dim>1</dim>
					<dim>1</dim>
				</port>
				<port id="2" precision="FP32">
					<dim>1</dim>
					<dim>64</dim>
					<dim>1</dim>
					<dim>1</dim>
				</port>
				<port id="3" precision="FP32">
					<dim>1</dim>
					<dim>1</dim>
					<dim>1</dim>
					<dim>1</dim>
				</port>
				<port id="4" precision="FP32">
					<dim>1</dim>
					<dim>1</dim>
					<dim>1</dim>
					<dim>1</dim>
				</port>
			</input>
			<output>
				<port id="5" precision="FP32">
					<dim>1</dim>
					<dim>64</dim>
					<dim>56</dim>
					<dim>56</dim>
				</port>
			</output>
		</layer>
		<layer id="110" name="Constant_3873" type="Const" version="opset1">
			<data element_type="u1" shape="64, 64, 3, 3" offset="125496" size="4608"/>
			<output>
				<port id="0" precision="BIN">
					<dim>64</dim>
					<dim>64</dim>
					<dim>3</dim>
					<dim>3</dim>
				</port>
			</output>
		</layer>
		<layer id="111" name="Convolution_3209" type="BinaryConvolution" version="opset1">
			<data strides="1, 1" pads_begin="1, 1" pads_end="1, 1" dilations="1, 1" mode="xnor-popcount" pad_value="-1" auto_pad="explicit"/>
			<rt_info>
				<attribute name="fused_names" version="0" value="684, 685, 687, 688, 689, 690, 691, 692, 694, 695, 696, 697, 698"/>
			</rt_info>
			<input>
				<port id="0" precision="FP32">
					<dim>1</dim>
					<dim>64</dim>
					<dim>56</dim>
					<dim>56</dim>
				</port>
				<port id="1" precision="BIN">
					<dim>64</dim>
					<dim>64</dim>
					<dim>3</dim>
					<dim>3</dim>
				</port>
			</input>
			<output>
				<port id="2" precision="FP32">
					<dim>1</dim>
					<dim>64</dim>
					<dim>56</dim>
					<dim>56</dim>
				</port>
			</output>
		</layer>
		<layer id="112" name="Constant_3884" type="Const" version="opset1">
			<data element_type="f32" shape="" offset="39188" size="4"/>
			<output>
				<port id="0" precision="FP32"/>
			</output>
		</layer>
		<layer id="113" name="Multiply_5684" type="Multiply" version="opset1">
			<data auto_broadcast="numpy"/>
			<rt_info>
				<attribute name="fused_names" version="0" value="684, 685, 687, 688, 689, 690, 691, 692, 694, 695, 696, 697, 698"/>
			</rt_info>
			<input>
				<port id="0" precision="FP32">
					<dim>1</dim>
					<dim>64</dim>
					<dim>56</dim>
					<dim>56</dim>
				</port>
				<port id="1" precision="FP32"/>
			</input>
			<output>
				<port id="2" precision="FP32">
					<dim>1</dim>
					<dim>64</dim>
					<dim>56</dim>
					<dim>56</dim>
				</port>
			</output>
		</layer>
		<layer id="114" name="Constant_5686" type="Const" version="opset1">
			<data element_type="f32" shape="64, 1, 1" offset="130104" size="256"/>
			<output>
				<port id="0" precision="FP32">
					<dim>64</dim>
					<dim>1</dim>
					<dim>1</dim>
				</port>
			</output>
		</layer>
		<layer id="115" name="Multiply_3885" type="Add" version="opset1">
			<data auto_broadcast="numpy"/>
			<rt_info>
				<attribute name="fused_names" version="0" value="684, 685, 687, 688, 689, 690, 691, 692, 694, 695, 696, 697, 698"/>
			</rt_info>
			<input>
				<port id="0" precision="FP32">
					<dim>1</dim>
					<dim>64</dim>
					<dim>56</dim>
					<dim>56</dim>
				</port>
				<port id="1" precision="FP32">
					<dim>64</dim>
					<dim>1</dim>
					<dim>1</dim>
				</port>
			</input>
			<output>
				<port id="2" precision="FP32">
					<dim>1</dim>
					<dim>64</dim>
					<dim>56</dim>
					<dim>56</dim>
				</port>
			</output>
		</layer>
		<layer id="116" name="Reshape_3211" type="Const" version="opset1">
			<data element_type="f32" shape="1, 1, 1" offset="130360" size="4"/>
			<output>
				<port id="0" precision="FP32">
					<dim>1</dim>
					<dim>1</dim>
					<dim>1</dim>
				</port>
			</output>
		</layer>
		<layer id="117" name="Multiply_3214" type="Multiply" version="opset1">
			<data auto_broadcast="numpy"/>
			<rt_info>
				<attribute name="fused_names" version="0" value="684, 685, 687, 688, 689, 690, 691, 692, 694, 695, 696, 697, 698"/>
			</rt_info>
			<input>
				<port id="0" precision="FP32">
					<dim>1</dim>
					<dim>64</dim>
					<dim>56</dim>
					<dim>56</dim>
				</port>
				<port id="1" precision="FP32">
					<dim>1</dim>
					<dim>1</dim>
					<dim>1</dim>
				</port>
			</input>
			<output>
				<port id="2" precision="FP32">
					<dim>1</dim>
					<dim>64</dim>
					<dim>56</dim>
					<dim>56</dim>
				</port>
			</output>
		</layer>
		<layer id="118" name="Reshape_3215" type="Const" version="opset1">
			<data element_type="f32" shape="1, 1, 1" offset="130364" size="4"/>
			<output>
				<port id="0" precision="FP32">
					<dim>1</dim>
					<dim>1</dim>
					<dim>1</dim>
				</port>
			</output>
		</layer>
		<layer id="119" name="698" type="Multiply" version="opset1">
			<data auto_broadcast="numpy"/>
			<rt_info>
				<attribute name="fused_names" version="0" value="684, 685, 687, 688, 689, 690, 691, 692, 694, 695, 696, 697, 698"/>
			</rt_info>
			<input>
				<port id="0" precision="FP32">
					<dim>1</dim>
					<dim>64</dim>
					<dim>56</dim>
					<dim>56</dim>
				</port>
				<port id="1" precision="FP32">
					<dim>1</dim>
					<dim>1</dim>
					<dim>1</dim>
				</port>
			</input>
			<output>
				<port id="2" precision="FP32" names="698">
					<dim>1</dim>
					<dim>64</dim>
					<dim>56</dim>
					<dim>56</dim>
				</port>
			</output>
		</layer>
		<layer id="120" name="Reshape_4604" type="Const" version="opset1">
			<data element_type="f32" shape="1, 64, 1, 1" offset="130368" size="256"/>
			<output>
				<port id="0" precision="FP32">
					<dim>1</dim>
					<dim>64</dim>
					<dim>1</dim>
					<dim>1</dim>
				</port>
			</output>
		</layer>
		<layer id="121" name="Subtract_4607" type="Subtract" version="opset1">
			<data auto_broadcast="numpy"/>
			<rt_info>
				<attribute name="fused_names" version="0" value="699"/>
			</rt_info>
			<input>
				<port id="0" precision="FP32">
					<dim>1</dim>
					<dim>64</dim>
					<dim>56</dim>
					<dim>56</dim>
				</port>
				<port id="1" precision="FP32">
					<dim>1</dim>
					<dim>64</dim>
					<dim>1</dim>
					<dim>1</dim>
				</port>
			</input>
			<output>
				<port id="2" precision="FP32">
					<dim>1</dim>
					<dim>64</dim>
					<dim>56</dim>
					<dim>56</dim>
				</port>
			</output>
		</layer>
		<layer id="122" name="Reshape_4598" type="Const" version="opset1">
			<data element_type="f32" shape="1, 64, 1, 1" offset="130624" size="256"/>
			<output>
				<port id="0" precision="FP32">
					<dim>1</dim>
					<dim>64</dim>
					<dim>1</dim>
					<dim>1</dim>
				</port>
			</output>
		</layer>
		<layer id="123" name="Multiply_4608" type="Multiply" version="opset1">
			<data auto_broadcast="numpy"/>
			<rt_info>
				<attribute name="fused_names" version="0" value="699"/>
			</rt_info>
			<input>
				<port id="0" precision="FP32">
					<dim>1</dim>
					<dim>64</dim>
					<dim>56</dim>
					<dim>56</dim>
				</port>
				<port id="1" precision="FP32">
					<dim>1</dim>
					<dim>64</dim>
					<dim>1</dim>
					<dim>1</dim>
				</port>
			</input>
			<output>
				<port id="2" precision="FP32">
					<dim>1</dim>
					<dim>64</dim>
					<dim>56</dim>
					<dim>56</dim>
				</port>
			</output>
		</layer>
		<layer id="124" name="Reshape_4601" type="Const" version="opset1">
			<data element_type="f32" shape="1, 64, 1, 1" offset="130880" size="256"/>
			<output>
				<port id="0" precision="FP32">
					<dim>1</dim>
					<dim>64</dim>
					<dim>1</dim>
					<dim>1</dim>
				</port>
			</output>
		</layer>
		<layer id="125" name="699" type="Add" version="opset1">
			<data auto_broadcast="numpy"/>
			<rt_info>
				<attribute name="fused_names" version="0" value="699"/>
			</rt_info>
			<input>
				<port id="0" precision="FP32">
					<dim>1</dim>
					<dim>64</dim>
					<dim>56</dim>
					<dim>56</dim>
				</port>
				<port id="1" precision="FP32">
					<dim>1</dim>
					<dim>64</dim>
					<dim>1</dim>
					<dim>1</dim>
				</port>
			</input>
			<output>
				<port id="2" precision="FP32" names="699">
					<dim>1</dim>
					<dim>64</dim>
					<dim>56</dim>
					<dim>56</dim>
				</port>
			</output>
		</layer>
		<layer id="126" name="700" type="ReLU" version="opset1">
			<rt_info>
				<attribute name="fused_names" version="0" value="700"/>
			</rt_info>
			<input>
				<port id="0" precision="FP32">
					<dim>1</dim>
					<dim>64</dim>
					<dim>56</dim>
					<dim>56</dim>
				</port>
			</input>
			<output>
				<port id="1" precision="FP32" names="700">
					<dim>1</dim>
					<dim>64</dim>
					<dim>56</dim>
					<dim>56</dim>
				</port>
			</output>
		</layer>
		<layer id="127" name="706" type="Const" version="opset1">
			<data element_type="f32" shape="1, 64, 1, 1" offset="131136" size="256"/>
			<output>
				<port id="0" precision="FP32" names="706">
					<dim>1</dim>
					<dim>64</dim>
					<dim>1</dim>
					<dim>1</dim>
				</port>
			</output>
		</layer>
		<layer id="128" name="704" type="Const" version="opset1">
			<data element_type="f32" shape="1, 1, 1, 1" offset="38668" size="4"/>
			<output>
				<port id="0" precision="FP32">
					<dim>1</dim>
					<dim>1</dim>
					<dim>1</dim>
					<dim>1</dim>
				</port>
			</output>
		</layer>
		<layer id="129" name="707" type="Const" version="opset1">
			<data element_type="f32" shape="1, 1, 1, 1" offset="38672" size="4"/>
			<output>
				<port id="0" precision="FP32">
					<dim>1</dim>
					<dim>1</dim>
					<dim>1</dim>
					<dim>1</dim>
				</port>
			</output>
		</layer>
		<layer id="130" name="708" type="FakeQuantize" version="opset1">
			<data levels="2" auto_broadcast="numpy"/>
			<rt_info>
				<attribute name="fused_names" version="0" value="701, 702, 704, 705, 706, 707, 708, 709, 711, 712, 713, 714, 715"/>
			</rt_info>
			<input>
				<port id="0" precision="FP32">
					<dim>1</dim>
					<dim>64</dim>
					<dim>56</dim>
					<dim>56</dim>
				</port>
				<port id="1" precision="FP32">
					<dim>1</dim>
					<dim>64</dim>
					<dim>1</dim>
					<dim>1</dim>
				</port>
				<port id="2" precision="FP32">
					<dim>1</dim>
					<dim>64</dim>
					<dim>1</dim>
					<dim>1</dim>
				</port>
				<port id="3" precision="FP32">
					<dim>1</dim>
					<dim>1</dim>
					<dim>1</dim>
					<dim>1</dim>
				</port>
				<port id="4" precision="FP32">
					<dim>1</dim>
					<dim>1</dim>
					<dim>1</dim>
					<dim>1</dim>
				</port>
			</input>
			<output>
				<port id="5" precision="FP32">
					<dim>1</dim>
					<dim>64</dim>
					<dim>56</dim>
					<dim>56</dim>
				</port>
			</output>
		</layer>
		<layer id="131" name="Constant_3886" type="Const" version="opset1">
			<data element_type="u1" shape="256, 64, 1, 1" offset="131392" size="2048"/>
			<output>
				<port id="0" precision="BIN">
					<dim>256</dim>
					<dim>64</dim>
					<dim>1</dim>
					<dim>1</dim>
				</port>
			</output>
		</layer>
		<layer id="132" name="Convolution_3223" type="BinaryConvolution" version="opset1">
			<data strides="1, 1" pads_begin="0, 0" pads_end="0, 0" dilations="1, 1" mode="xnor-popcount" pad_value="-1" auto_pad="explicit"/>
			<rt_info>
				<attribute name="fused_names" version="0" value="701, 702, 704, 705, 706, 707, 708, 709, 711, 712, 713, 714, 715"/>
			</rt_info>
			<input>
				<port id="0" precision="FP32">
					<dim>1</dim>
					<dim>64</dim>
					<dim>56</dim>
					<dim>56</dim>
				</port>
				<port id="1" precision="BIN">
					<dim>256</dim>
					<dim>64</dim>
					<dim>1</dim>
					<dim>1</dim>
				</port>
			</input>
			<output>
				<port id="2" precision="FP32">
					<dim>1</dim>
					<dim>256</dim>
					<dim>56</dim>
					<dim>56</dim>
				</port>
			</output>
		</layer>
		<layer id="133" name="Constant_3897" type="Const" version="opset1">
			<data element_type="f32" shape="" offset="39188" size="4"/>
			<output>
				<port id="0" precision="FP32"/>
			</output>
		</layer>
		<layer id="134" name="Multiply_5688" type="Multiply" version="opset1">
			<data auto_broadcast="numpy"/>
			<rt_info>
				<attribute name="fused_names" version="0" value="701, 702, 704, 705, 706, 707, 708, 709, 711, 712, 713, 714, 715"/>
			</rt_info>
			<input>
				<port id="0" precision="FP32">
					<dim>1</dim>
					<dim>256</dim>
					<dim>56</dim>
					<dim>56</dim>
				</port>
				<port id="1" precision="FP32"/>
			</input>
			<output>
				<port id="2" precision="FP32">
					<dim>1</dim>
					<dim>256</dim>
					<dim>56</dim>
					<dim>56</dim>
				</port>
			</output>
		</layer>
		<layer id="135" name="Constant_5690" type="Const" version="opset1">
			<data element_type="f32" shape="256, 1, 1" offset="133440" size="1024"/>
			<output>
				<port id="0" precision="FP32">
					<dim>256</dim>
					<dim>1</dim>
					<dim>1</dim>
				</port>
			</output>
		</layer>
		<layer id="136" name="Multiply_3898" type="Add" version="opset1">
			<data auto_broadcast="numpy"/>
			<rt_info>
				<attribute name="fused_names" version="0" value="701, 702, 704, 705, 706, 707, 708, 709, 711, 712, 713, 714, 715"/>
			</rt_info>
			<input>
				<port id="0" precision="FP32">
					<dim>1</dim>
					<dim>256</dim>
					<dim>56</dim>
					<dim>56</dim>
				</port>
				<port id="1" precision="FP32">
					<dim>256</dim>
					<dim>1</dim>
					<dim>1</dim>
				</port>
			</input>
			<output>
				<port id="2" precision="FP32">
					<dim>1</dim>
					<dim>256</dim>
					<dim>56</dim>
					<dim>56</dim>
				</port>
			</output>
		</layer>
		<layer id="137" name="Reshape_3225" type="Const" version="opset1">
			<data element_type="f32" shape="1, 1, 1" offset="134464" size="4"/>
			<output>
				<port id="0" precision="FP32">
					<dim>1</dim>
					<dim>1</dim>
					<dim>1</dim>
				</port>
			</output>
		</layer>
		<layer id="138" name="Multiply_3228" type="Multiply" version="opset1">
			<data auto_broadcast="numpy"/>
			<rt_info>
				<attribute name="fused_names" version="0" value="701, 702, 704, 705, 706, 707, 708, 709, 711, 712, 713, 714, 715"/>
			</rt_info>
			<input>
				<port id="0" precision="FP32">
					<dim>1</dim>
					<dim>256</dim>
					<dim>56</dim>
					<dim>56</dim>
				</port>
				<port id="1" precision="FP32">
					<dim>1</dim>
					<dim>1</dim>
					<dim>1</dim>
				</port>
			</input>
			<output>
				<port id="2" precision="FP32">
					<dim>1</dim>
					<dim>256</dim>
					<dim>56</dim>
					<dim>56</dim>
				</port>
			</output>
		</layer>
		<layer id="139" name="Reshape_3229" type="Const" version="opset1">
			<data element_type="f32" shape="1, 1, 1" offset="134468" size="4"/>
			<output>
				<port id="0" precision="FP32">
					<dim>1</dim>
					<dim>1</dim>
					<dim>1</dim>
				</port>
			</output>
		</layer>
		<layer id="140" name="715" type="Multiply" version="opset1">
			<data auto_broadcast="numpy"/>
			<rt_info>
				<attribute name="fused_names" version="0" value="701, 702, 704, 705, 706, 707, 708, 709, 711, 712, 713, 714, 715"/>
			</rt_info>
			<input>
				<port id="0" precision="FP32">
					<dim>1</dim>
					<dim>256</dim>
					<dim>56</dim>
					<dim>56</dim>
				</port>
				<port id="1" precision="FP32">
					<dim>1</dim>
					<dim>1</dim>
					<dim>1</dim>
				</port>
			</input>
			<output>
				<port id="2" precision="FP32" names="715">
					<dim>1</dim>
					<dim>256</dim>
					<dim>56</dim>
					<dim>56</dim>
				</port>
			</output>
		</layer>
		<layer id="141" name="Reshape_4627" type="Const" version="opset1">
			<data element_type="f32" shape="1, 256, 1, 1" offset="134472" size="1024"/>
			<output>
				<port id="0" precision="FP32">
					<dim>1</dim>
					<dim>256</dim>
					<dim>1</dim>
					<dim>1</dim>
				</port>
			</output>
		</layer>
		<layer id="142" name="Subtract_4630" type="Subtract" version="opset1">
			<data auto_broadcast="numpy"/>
			<rt_info>
				<attribute name="fused_names" version="0" value="716"/>
			</rt_info>
			<input>
				<port id="0" precision="FP32">
					<dim>1</dim>
					<dim>256</dim>
					<dim>56</dim>
					<dim>56</dim>
				</port>
				<port id="1" precision="FP32">
					<dim>1</dim>
					<dim>256</dim>
					<dim>1</dim>
					<dim>1</dim>
				</port>
			</input>
			<output>
				<port id="2" precision="FP32">
					<dim>1</dim>
					<dim>256</dim>
					<dim>56</dim>
					<dim>56</dim>
				</port>
			</output>
		</layer>
		<layer id="143" name="Reshape_4621" type="Const" version="opset1">
			<data element_type="f32" shape="1, 256, 1, 1" offset="135496" size="1024"/>
			<output>
				<port id="0" precision="FP32">
					<dim>1</dim>
					<dim>256</dim>
					<dim>1</dim>
					<dim>1</dim>
				</port>
			</output>
		</layer>
		<layer id="144" name="Multiply_4631" type="Multiply" version="opset1">
			<data auto_broadcast="numpy"/>
			<rt_info>
				<attribute name="fused_names" version="0" value="716"/>
			</rt_info>
			<input>
				<port id="0" precision="FP32">
					<dim>1</dim>
					<dim>256</dim>
					<dim>56</dim>
					<dim>56</dim>
				</port>
				<port id="1" precision="FP32">
					<dim>1</dim>
					<dim>256</dim>
					<dim>1</dim>
					<dim>1</dim>
				</port>
			</input>
			<output>
				<port id="2" precision="FP32">
					<dim>1</dim>
					<dim>256</dim>
					<dim>56</dim>
					<dim>56</dim>
				</port>
			</output>
		</layer>
		<layer id="145" name="Reshape_4624" type="Const" version="opset1">
			<data element_type="f32" shape="1, 256, 1, 1" offset="136520" size="1024"/>
			<output>
				<port id="0" precision="FP32">
					<dim>1</dim>
					<dim>256</dim>
					<dim>1</dim>
					<dim>1</dim>
				</port>
			</output>
		</layer>
		<layer id="146" name="716" type="Add" version="opset1">
			<data auto_broadcast="numpy"/>
			<rt_info>
				<attribute name="fused_names" version="0" value="716"/>
			</rt_info>
			<input>
				<port id="0" precision="FP32">
					<dim>1</dim>
					<dim>256</dim>
					<dim>56</dim>
					<dim>56</dim>
				</port>
				<port id="1" precision="FP32">
					<dim>1</dim>
					<dim>256</dim>
					<dim>1</dim>
					<dim>1</dim>
				</port>
			</input>
			<output>
				<port id="2" precision="FP32" names="716">
					<dim>1</dim>
					<dim>256</dim>
					<dim>56</dim>
					<dim>56</dim>
				</port>
			</output>
		</layer>
		<layer id="147" name="717" type="Add" version="opset1">
			<data auto_broadcast="numpy"/>
			<rt_info>
				<attribute name="fused_names" version="0" value="717"/>
			</rt_info>
			<input>
				<port id="0" precision="FP32">
					<dim>1</dim>
					<dim>256</dim>
					<dim>56</dim>
					<dim>56</dim>
				</port>
				<port id="1" precision="FP32">
					<dim>1</dim>
					<dim>256</dim>
					<dim>56</dim>
					<dim>56</dim>
				</port>
			</input>
			<output>
				<port id="2" precision="FP32" names="717">
					<dim>1</dim>
					<dim>256</dim>
					<dim>56</dim>
					<dim>56</dim>
				</port>
			</output>
		</layer>
		<layer id="148" name="718" type="ReLU" version="opset1">
			<rt_info>
				<attribute name="fused_names" version="0" value="718"/>
			</rt_info>
			<input>
				<port id="0" precision="FP32">
					<dim>1</dim>
					<dim>256</dim>
					<dim>56</dim>
					<dim>56</dim>
				</port>
			</input>
			<output>
				<port id="1" precision="FP32" names="718">
					<dim>1</dim>
					<dim>256</dim>
					<dim>56</dim>
					<dim>56</dim>
				</port>
			</output>
		</layer>
		<layer id="149" name="724" type="Const" version="opset1">
			<data element_type="f32" shape="1, 256, 1, 1" offset="137544" size="1024"/>
			<output>
				<port id="0" precision="FP32" names="724">
					<dim>1</dim>
					<dim>256</dim>
					<dim>1</dim>
					<dim>1</dim>
				</port>
			</output>
		</layer>
		<layer id="150" name="722" type="Const" version="opset1">
			<data element_type="f32" shape="1, 1, 1, 1" offset="38668" size="4"/>
			<output>
				<port id="0" precision="FP32">
					<dim>1</dim>
					<dim>1</dim>
					<dim>1</dim>
					<dim>1</dim>
				</port>
			</output>
		</layer>
		<layer id="151" name="725" type="Const" version="opset1">
			<data element_type="f32" shape="1, 1, 1, 1" offset="38672" size="4"/>
			<output>
				<port id="0" precision="FP32">
					<dim>1</dim>
					<dim>1</dim>
					<dim>1</dim>
					<dim>1</dim>
				</port>
			</output>
		</layer>
		<layer id="152" name="726" type="FakeQuantize" version="opset1">
			<data levels="2" auto_broadcast="numpy"/>
			<rt_info>
				<attribute name="fused_names" version="0" value="719, 720, 722, 723, 724, 725, 726, 727, 729, 730, 731, 732, 733"/>
			</rt_info>
			<input>
				<port id="0" precision="FP32">
					<dim>1</dim>
					<dim>256</dim>
					<dim>56</dim>
					<dim>56</dim>
				</port>
				<port id="1" precision="FP32">
					<dim>1</dim>
					<dim>256</dim>
					<dim>1</dim>
					<dim>1</dim>
				</port>
				<port id="2" precision="FP32">
					<dim>1</dim>
					<dim>256</dim>
					<dim>1</dim>
					<dim>1</dim>
				</port>
				<port id="3" precision="FP32">
					<dim>1</dim>
					<dim>1</dim>
					<dim>1</dim>
					<dim>1</dim>
				</port>
				<port id="4" precision="FP32">
					<dim>1</dim>
					<dim>1</dim>
					<dim>1</dim>
					<dim>1</dim>
				</port>
			</input>
			<output>
				<port id="5" precision="FP32">
					<dim>1</dim>
					<dim>256</dim>
					<dim>56</dim>
					<dim>56</dim>
				</port>
			</output>
		</layer>
		<layer id="153" name="Constant_3899" type="Const" version="opset1">
			<data element_type="u1" shape="64, 256, 1, 1" offset="138568" size="2048"/>
			<output>
				<port id="0" precision="BIN">
					<dim>64</dim>
					<dim>256</dim>
					<dim>1</dim>
					<dim>1</dim>
				</port>
			</output>
		</layer>
		<layer id="154" name="Convolution_3237" type="BinaryConvolution" version="opset1">
			<data strides="1, 1" pads_begin="0, 0" pads_end="0, 0" dilations="1, 1" mode="xnor-popcount" pad_value="-1" auto_pad="explicit"/>
			<rt_info>
				<attribute name="fused_names" version="0" value="719, 720, 722, 723, 724, 725, 726, 727, 729, 730, 731, 732, 733"/>
			</rt_info>
			<input>
				<port id="0" precision="FP32">
					<dim>1</dim>
					<dim>256</dim>
					<dim>56</dim>
					<dim>56</dim>
				</port>
				<port id="1" precision="BIN">
					<dim>64</dim>
					<dim>256</dim>
					<dim>1</dim>
					<dim>1</dim>
				</port>
			</input>
			<output>
				<port id="2" precision="FP32">
					<dim>1</dim>
					<dim>64</dim>
					<dim>56</dim>
					<dim>56</dim>
				</port>
			</output>
		</layer>
		<layer id="155" name="Constant_3910" type="Const" version="opset1">
			<data element_type="f32" shape="" offset="39188" size="4"/>
			<output>
				<port id="0" precision="FP32"/>
			</output>
		</layer>
		<layer id="156" name="Multiply_5692" type="Multiply" version="opset1">
			<data auto_broadcast="numpy"/>
			<rt_info>
				<attribute name="fused_names" version="0" value="719, 720, 722, 723, 724, 725, 726, 727, 729, 730, 731, 732, 733"/>
			</rt_info>
			<input>
				<port id="0" precision="FP32">
					<dim>1</dim>
					<dim>64</dim>
					<dim>56</dim>
					<dim>56</dim>
				</port>
				<port id="1" precision="FP32"/>
			</input>
			<output>
				<port id="2" precision="FP32">
					<dim>1</dim>
					<dim>64</dim>
					<dim>56</dim>
					<dim>56</dim>
				</port>
			</output>
		</layer>
		<layer id="157" name="Constant_5694" type="Const" version="opset1">
			<data element_type="f32" shape="64, 1, 1" offset="140616" size="256"/>
			<output>
				<port id="0" precision="FP32">
					<dim>64</dim>
					<dim>1</dim>
					<dim>1</dim>
				</port>
			</output>
		</layer>
		<layer id="158" name="Multiply_3911" type="Add" version="opset1">
			<data auto_broadcast="numpy"/>
			<rt_info>
				<attribute name="fused_names" version="0" value="719, 720, 722, 723, 724, 725, 726, 727, 729, 730, 731, 732, 733"/>
			</rt_info>
			<input>
				<port id="0" precision="FP32">
					<dim>1</dim>
					<dim>64</dim>
					<dim>56</dim>
					<dim>56</dim>
				</port>
				<port id="1" precision="FP32">
					<dim>64</dim>
					<dim>1</dim>
					<dim>1</dim>
				</port>
			</input>
			<output>
				<port id="2" precision="FP32">
					<dim>1</dim>
					<dim>64</dim>
					<dim>56</dim>
					<dim>56</dim>
				</port>
			</output>
		</layer>
		<layer id="159" name="Reshape_3239" type="Const" version="opset1">
			<data element_type="f32" shape="1, 1, 1" offset="140872" size="4"/>
			<output>
				<port id="0" precision="FP32">
					<dim>1</dim>
					<dim>1</dim>
					<dim>1</dim>
				</port>
			</output>
		</layer>
		<layer id="160" name="Multiply_3242" type="Multiply" version="opset1">
			<data auto_broadcast="numpy"/>
			<rt_info>
				<attribute name="fused_names" version="0" value="719, 720, 722, 723, 724, 725, 726, 727, 729, 730, 731, 732, 733"/>
			</rt_info>
			<input>
				<port id="0" precision="FP32">
					<dim>1</dim>
					<dim>64</dim>
					<dim>56</dim>
					<dim>56</dim>
				</port>
				<port id="1" precision="FP32">
					<dim>1</dim>
					<dim>1</dim>
					<dim>1</dim>
				</port>
			</input>
			<output>
				<port id="2" precision="FP32">
					<dim>1</dim>
					<dim>64</dim>
					<dim>56</dim>
					<dim>56</dim>
				</port>
			</output>
		</layer>
		<layer id="161" name="Reshape_3243" type="Const" version="opset1">
			<data element_type="f32" shape="1, 1, 1" offset="140876" size="4"/>
			<output>
				<port id="0" precision="FP32">
					<dim>1</dim>
					<dim>1</dim>
					<dim>1</dim>
				</port>
			</output>
		</layer>
		<layer id="162" name="733" type="Multiply" version="opset1">
			<data auto_broadcast="numpy"/>
			<rt_info>
				<attribute name="fused_names" version="0" value="719, 720, 722, 723, 724, 725, 726, 727, 729, 730, 731, 732, 733"/>
			</rt_info>
			<input>
				<port id="0" precision="FP32">
					<dim>1</dim>
					<dim>64</dim>
					<dim>56</dim>
					<dim>56</dim>
				</port>
				<port id="1" precision="FP32">
					<dim>1</dim>
					<dim>1</dim>
					<dim>1</dim>
				</port>
			</input>
			<output>
				<port id="2" precision="FP32" names="733">
					<dim>1</dim>
					<dim>64</dim>
					<dim>56</dim>
					<dim>56</dim>
				</port>
			</output>
		</layer>
		<layer id="163" name="Reshape_4650" type="Const" version="opset1">
			<data element_type="f32" shape="1, 64, 1, 1" offset="140880" size="256"/>
			<output>
				<port id="0" precision="FP32">
					<dim>1</dim>
					<dim>64</dim>
					<dim>1</dim>
					<dim>1</dim>
				</port>
			</output>
		</layer>
		<layer id="164" name="Subtract_4653" type="Subtract" version="opset1">
			<data auto_broadcast="numpy"/>
			<rt_info>
				<attribute name="fused_names" version="0" value="734"/>
			</rt_info>
			<input>
				<port id="0" precision="FP32">
					<dim>1</dim>
					<dim>64</dim>
					<dim>56</dim>
					<dim>56</dim>
				</port>
				<port id="1" precision="FP32">
					<dim>1</dim>
					<dim>64</dim>
					<dim>1</dim>
					<dim>1</dim>
				</port>
			</input>
			<output>
				<port id="2" precision="FP32">
					<dim>1</dim>
					<dim>64</dim>
					<dim>56</dim>
					<dim>56</dim>
				</port>
			</output>
		</layer>
		<layer id="165" name="Reshape_4644" type="Const" version="opset1">
			<data element_type="f32" shape="1, 64, 1, 1" offset="141136" size="256"/>
			<output>
				<port id="0" precision="FP32">
					<dim>1</dim>
					<dim>64</dim>
					<dim>1</dim>
					<dim>1</dim>
				</port>
			</output>
		</layer>
		<layer id="166" name="Multiply_4654" type="Multiply" version="opset1">
			<data auto_broadcast="numpy"/>
			<rt_info>
				<attribute name="fused_names" version="0" value="734"/>
			</rt_info>
			<input>
				<port id="0" precision="FP32">
					<dim>1</dim>
					<dim>64</dim>
					<dim>56</dim>
					<dim>56</dim>
				</port>
				<port id="1" precision="FP32">
					<dim>1</dim>
					<dim>64</dim>
					<dim>1</dim>
					<dim>1</dim>
				</port>
			</input>
			<output>
				<port id="2" precision="FP32">
					<dim>1</dim>
					<dim>64</dim>
					<dim>56</dim>
					<dim>56</dim>
				</port>
			</output>
		</layer>
		<layer id="167" name="Reshape_4647" type="Const" version="opset1">
			<data element_type="f32" shape="1, 64, 1, 1" offset="141392" size="256"/>
			<output>
				<port id="0" precision="FP32">
					<dim>1</dim>
					<dim>64</dim>
					<dim>1</dim>
					<dim>1</dim>
				</port>
			</output>
		</layer>
		<layer id="168" name="734" type="Add" version="opset1">
			<data auto_broadcast="numpy"/>
			<rt_info>
				<attribute name="fused_names" version="0" value="734"/>
			</rt_info>
			<input>
				<port id="0" precision="FP32">
					<dim>1</dim>
					<dim>64</dim>
					<dim>56</dim>
					<dim>56</dim>
				</port>
				<port id="1" precision="FP32">
					<dim>1</dim>
					<dim>64</dim>
					<dim>1</dim>
					<dim>1</dim>
				</port>
			</input>
			<output>
				<port id="2" precision="FP32" names="734">
					<dim>1</dim>
					<dim>64</dim>
					<dim>56</dim>
					<dim>56</dim>
				</port>
			</output>
		</layer>
		<layer id="169" name="735" type="ReLU" version="opset1">
			<rt_info>
				<attribute name="fused_names" version="0" value="735"/>
			</rt_info>
			<input>
				<port id="0" precision="FP32">
					<dim>1</dim>
					<dim>64</dim>
					<dim>56</dim>
					<dim>56</dim>
				</port>
			</input>
			<output>
				<port id="1" precision="FP32" names="735">
					<dim>1</dim>
					<dim>64</dim>
					<dim>56</dim>
					<dim>56</dim>
				</port>
			</output>
		</layer>
		<layer id="170" name="741" type="Const" version="opset1">
			<data element_type="f32" shape="1, 64, 1, 1" offset="141648" size="256"/>
			<output>
				<port id="0" precision="FP32" names="741">
					<dim>1</dim>
					<dim>64</dim>
					<dim>1</dim>
					<dim>1</dim>
				</port>
			</output>
		</layer>
		<layer id="171" name="739" type="Const" version="opset1">
			<data element_type="f32" shape="1, 1, 1, 1" offset="38668" size="4"/>
			<output>
				<port id="0" precision="FP32">
					<dim>1</dim>
					<dim>1</dim>
					<dim>1</dim>
					<dim>1</dim>
				</port>
			</output>
		</layer>
		<layer id="172" name="742" type="Const" version="opset1">
			<data element_type="f32" shape="1, 1, 1, 1" offset="38672" size="4"/>
			<output>
				<port id="0" precision="FP32">
					<dim>1</dim>
					<dim>1</dim>
					<dim>1</dim>
					<dim>1</dim>
				</port>
			</output>
		</layer>
		<layer id="173" name="743" type="FakeQuantize" version="opset1">
			<data levels="2" auto_broadcast="numpy"/>
			<rt_info>
				<attribute name="fused_names" version="0" value="736, 737, 739, 740, 741, 742, 743, 744, 746, 747, 748, 749, 750"/>
			</rt_info>
			<input>
				<port id="0" precision="FP32">
					<dim>1</dim>
					<dim>64</dim>
					<dim>56</dim>
					<dim>56</dim>
				</port>
				<port id="1" precision="FP32">
					<dim>1</dim>
					<dim>64</dim>
					<dim>1</dim>
					<dim>1</dim>
				</port>
				<port id="2" precision="FP32">
					<dim>1</dim>
					<dim>64</dim>
					<dim>1</dim>
					<dim>1</dim>
				</port>
				<port id="3" precision="FP32">
					<dim>1</dim>
					<dim>1</dim>
					<dim>1</dim>
					<dim>1</dim>
				</port>
				<port id="4" precision="FP32">
					<dim>1</dim>
					<dim>1</dim>
					<dim>1</dim>
					<dim>1</dim>
				</port>
			</input>
			<output>
				<port id="5" precision="FP32">
					<dim>1</dim>
					<dim>64</dim>
					<dim>56</dim>
					<dim>56</dim>
				</port>
			</output>
		</layer>
		<layer id="174" name="Constant_3912" type="Const" version="opset1">
			<data element_type="u1" shape="64, 64, 3, 3" offset="141904" size="4608"/>
			<output>
				<port id="0" precision="BIN">
					<dim>64</dim>
					<dim>64</dim>
					<dim>3</dim>
					<dim>3</dim>
				</port>
			</output>
		</layer>
		<layer id="175" name="Convolution_3251" type="BinaryConvolution" version="opset1">
			<data strides="1, 1" pads_begin="1, 1" pads_end="1, 1" dilations="1, 1" mode="xnor-popcount" pad_value="-1" auto_pad="explicit"/>
			<rt_info>
				<attribute name="fused_names" version="0" value="736, 737, 739, 740, 741, 742, 743, 744, 746, 747, 748, 749, 750"/>
			</rt_info>
			<input>
				<port id="0" precision="FP32">
					<dim>1</dim>
					<dim>64</dim>
					<dim>56</dim>
					<dim>56</dim>
				</port>
				<port id="1" precision="BIN">
					<dim>64</dim>
					<dim>64</dim>
					<dim>3</dim>
					<dim>3</dim>
				</port>
			</input>
			<output>
				<port id="2" precision="FP32">
					<dim>1</dim>
					<dim>64</dim>
					<dim>56</dim>
					<dim>56</dim>
				</port>
			</output>
		</layer>
		<layer id="176" name="Constant_3923" type="Const" version="opset1">
			<data element_type="f32" shape="" offset="39188" size="4"/>
			<output>
				<port id="0" precision="FP32"/>
			</output>
		</layer>
		<layer id="177" name="Multiply_5696" type="Multiply" version="opset1">
			<data auto_broadcast="numpy"/>
			<rt_info>
				<attribute name="fused_names" version="0" value="736, 737, 739, 740, 741, 742, 743, 744, 746, 747, 748, 749, 750"/>
			</rt_info>
			<input>
				<port id="0" precision="FP32">
					<dim>1</dim>
					<dim>64</dim>
					<dim>56</dim>
					<dim>56</dim>
				</port>
				<port id="1" precision="FP32"/>
			</input>
			<output>
				<port id="2" precision="FP32">
					<dim>1</dim>
					<dim>64</dim>
					<dim>56</dim>
					<dim>56</dim>
				</port>
			</output>
		</layer>
		<layer id="178" name="Constant_5698" type="Const" version="opset1">
			<data element_type="f32" shape="64, 1, 1" offset="146512" size="256"/>
			<output>
				<port id="0" precision="FP32">
					<dim>64</dim>
					<dim>1</dim>
					<dim>1</dim>
				</port>
			</output>
		</layer>
		<layer id="179" name="Multiply_3924" type="Add" version="opset1">
			<data auto_broadcast="numpy"/>
			<rt_info>
				<attribute name="fused_names" version="0" value="736, 737, 739, 740, 741, 742, 743, 744, 746, 747, 748, 749, 750"/>
			</rt_info>
			<input>
				<port id="0" precision="FP32">
					<dim>1</dim>
					<dim>64</dim>
					<dim>56</dim>
					<dim>56</dim>
				</port>
				<port id="1" precision="FP32">
					<dim>64</dim>
					<dim>1</dim>
					<dim>1</dim>
				</port>
			</input>
			<output>
				<port id="2" precision="FP32">
					<dim>1</dim>
					<dim>64</dim>
					<dim>56</dim>
					<dim>56</dim>
				</port>
			</output>
		</layer>
		<layer id="180" name="Reshape_3253" type="Const" version="opset1">
			<data element_type="f32" shape="1, 1, 1" offset="146768" size="4"/>
			<output>
				<port id="0" precision="FP32">
					<dim>1</dim>
					<dim>1</dim>
					<dim>1</dim>
				</port>
			</output>
		</layer>
		<layer id="181" name="Multiply_3256" type="Multiply" version="opset1">
			<data auto_broadcast="numpy"/>
			<rt_info>
				<attribute name="fused_names" version="0" value="736, 737, 739, 740, 741, 742, 743, 744, 746, 747, 748, 749, 750"/>
			</rt_info>
			<input>
				<port id="0" precision="FP32">
					<dim>1</dim>
					<dim>64</dim>
					<dim>56</dim>
					<dim>56</dim>
				</port>
				<port id="1" precision="FP32">
					<dim>1</dim>
					<dim>1</dim>
					<dim>1</dim>
				</port>
			</input>
			<output>
				<port id="2" precision="FP32">
					<dim>1</dim>
					<dim>64</dim>
					<dim>56</dim>
					<dim>56</dim>
				</port>
			</output>
		</layer>
		<layer id="182" name="Reshape_3257" type="Const" version="opset1">
			<data element_type="f32" shape="1, 1, 1" offset="146772" size="4"/>
			<output>
				<port id="0" precision="FP32">
					<dim>1</dim>
					<dim>1</dim>
					<dim>1</dim>
				</port>
			</output>
		</layer>
		<layer id="183" name="750" type="Multiply" version="opset1">
			<data auto_broadcast="numpy"/>
			<rt_info>
				<attribute name="fused_names" version="0" value="736, 737, 739, 740, 741, 742, 743, 744, 746, 747, 748, 749, 750"/>
			</rt_info>
			<input>
				<port id="0" precision="FP32">
					<dim>1</dim>
					<dim>64</dim>
					<dim>56</dim>
					<dim>56</dim>
				</port>
				<port id="1" precision="FP32">
					<dim>1</dim>
					<dim>1</dim>
					<dim>1</dim>
				</port>
			</input>
			<output>
				<port id="2" precision="FP32" names="750">
					<dim>1</dim>
					<dim>64</dim>
					<dim>56</dim>
					<dim>56</dim>
				</port>
			</output>
		</layer>
		<layer id="184" name="Reshape_4673" type="Const" version="opset1">
			<data element_type="f32" shape="1, 64, 1, 1" offset="146776" size="256"/>
			<output>
				<port id="0" precision="FP32">
					<dim>1</dim>
					<dim>64</dim>
					<dim>1</dim>
					<dim>1</dim>
				</port>
			</output>
		</layer>
		<layer id="185" name="Subtract_4676" type="Subtract" version="opset1">
			<data auto_broadcast="numpy"/>
			<rt_info>
				<attribute name="fused_names" version="0" value="751"/>
			</rt_info>
			<input>
				<port id="0" precision="FP32">
					<dim>1</dim>
					<dim>64</dim>
					<dim>56</dim>
					<dim>56</dim>
				</port>
				<port id="1" precision="FP32">
					<dim>1</dim>
					<dim>64</dim>
					<dim>1</dim>
					<dim>1</dim>
				</port>
			</input>
			<output>
				<port id="2" precision="FP32">
					<dim>1</dim>
					<dim>64</dim>
					<dim>56</dim>
					<dim>56</dim>
				</port>
			</output>
		</layer>
		<layer id="186" name="Reshape_4667" type="Const" version="opset1">
			<data element_type="f32" shape="1, 64, 1, 1" offset="147032" size="256"/>
			<output>
				<port id="0" precision="FP32">
					<dim>1</dim>
					<dim>64</dim>
					<dim>1</dim>
					<dim>1</dim>
				</port>
			</output>
		</layer>
		<layer id="187" name="Multiply_4677" type="Multiply" version="opset1">
			<data auto_broadcast="numpy"/>
			<rt_info>
				<attribute name="fused_names" version="0" value="751"/>
			</rt_info>
			<input>
				<port id="0" precision="FP32">
					<dim>1</dim>
					<dim>64</dim>
					<dim>56</dim>
					<dim>56</dim>
				</port>
				<port id="1" precision="FP32">
					<dim>1</dim>
					<dim>64</dim>
					<dim>1</dim>
					<dim>1</dim>
				</port>
			</input>
			<output>
				<port id="2" precision="FP32">
					<dim>1</dim>
					<dim>64</dim>
					<dim>56</dim>
					<dim>56</dim>
				</port>
			</output>
		</layer>
		<layer id="188" name="Reshape_4670" type="Const" version="opset1">
			<data element_type="f32" shape="1, 64, 1, 1" offset="147288" size="256"/>
			<output>
				<port id="0" precision="FP32">
					<dim>1</dim>
					<dim>64</dim>
					<dim>1</dim>
					<dim>1</dim>
				</port>
			</output>
		</layer>
		<layer id="189" name="751" type="Add" version="opset1">
			<data auto_broadcast="numpy"/>
			<rt_info>
				<attribute name="fused_names" version="0" value="751"/>
			</rt_info>
			<input>
				<port id="0" precision="FP32">
					<dim>1</dim>
					<dim>64</dim>
					<dim>56</dim>
					<dim>56</dim>
				</port>
				<port id="1" precision="FP32">
					<dim>1</dim>
					<dim>64</dim>
					<dim>1</dim>
					<dim>1</dim>
				</port>
			</input>
			<output>
				<port id="2" precision="FP32" names="751">
					<dim>1</dim>
					<dim>64</dim>
					<dim>56</dim>
					<dim>56</dim>
				</port>
			</output>
		</layer>
		<layer id="190" name="752" type="ReLU" version="opset1">
			<rt_info>
				<attribute name="fused_names" version="0" value="752"/>
			</rt_info>
			<input>
				<port id="0" precision="FP32">
					<dim>1</dim>
					<dim>64</dim>
					<dim>56</dim>
					<dim>56</dim>
				</port>
			</input>
			<output>
				<port id="1" precision="FP32" names="752">
					<dim>1</dim>
					<dim>64</dim>
					<dim>56</dim>
					<dim>56</dim>
				</port>
			</output>
		</layer>
		<layer id="191" name="758" type="Const" version="opset1">
			<data element_type="f32" shape="1, 64, 1, 1" offset="147544" size="256"/>
			<output>
				<port id="0" precision="FP32" names="758">
					<dim>1</dim>
					<dim>64</dim>
					<dim>1</dim>
					<dim>1</dim>
				</port>
			</output>
		</layer>
		<layer id="192" name="756" type="Const" version="opset1">
			<data element_type="f32" shape="1, 1, 1, 1" offset="38668" size="4"/>
			<output>
				<port id="0" precision="FP32">
					<dim>1</dim>
					<dim>1</dim>
					<dim>1</dim>
					<dim>1</dim>
				</port>
			</output>
		</layer>
		<layer id="193" name="759" type="Const" version="opset1">
			<data element_type="f32" shape="1, 1, 1, 1" offset="38672" size="4"/>
			<output>
				<port id="0" precision="FP32">
					<dim>1</dim>
					<dim>1</dim>
					<dim>1</dim>
					<dim>1</dim>
				</port>
			</output>
		</layer>
		<layer id="194" name="760" type="FakeQuantize" version="opset1">
			<data levels="2" auto_broadcast="numpy"/>
			<rt_info>
				<attribute name="fused_names" version="0" value="753, 754, 756, 757, 758, 759, 760, 761, 763, 764, 765, 766, 767"/>
			</rt_info>
			<input>
				<port id="0" precision="FP32">
					<dim>1</dim>
					<dim>64</dim>
					<dim>56</dim>
					<dim>56</dim>
				</port>
				<port id="1" precision="FP32">
					<dim>1</dim>
					<dim>64</dim>
					<dim>1</dim>
					<dim>1</dim>
				</port>
				<port id="2" precision="FP32">
					<dim>1</dim>
					<dim>64</dim>
					<dim>1</dim>
					<dim>1</dim>
				</port>
				<port id="3" precision="FP32">
					<dim>1</dim>
					<dim>1</dim>
					<dim>1</dim>
					<dim>1</dim>
				</port>
				<port id="4" precision="FP32">
					<dim>1</dim>
					<dim>1</dim>
					<dim>1</dim>
					<dim>1</dim>
				</port>
			</input>
			<output>
				<port id="5" precision="FP32">
					<dim>1</dim>
					<dim>64</dim>
					<dim>56</dim>
					<dim>56</dim>
				</port>
			</output>
		</layer>
		<layer id="195" name="Constant_3925" type="Const" version="opset1">
			<data element_type="u1" shape="256, 64, 1, 1" offset="147800" size="2048"/>
			<output>
				<port id="0" precision="BIN">
					<dim>256</dim>
					<dim>64</dim>
					<dim>1</dim>
					<dim>1</dim>
				</port>
			</output>
		</layer>
		<layer id="196" name="Convolution_3265" type="BinaryConvolution" version="opset1">
			<data strides="1, 1" pads_begin="0, 0" pads_end="0, 0" dilations="1, 1" mode="xnor-popcount" pad_value="-1" auto_pad="explicit"/>
			<rt_info>
				<attribute name="fused_names" version="0" value="753, 754, 756, 757, 758, 759, 760, 761, 763, 764, 765, 766, 767"/>
			</rt_info>
			<input>
				<port id="0" precision="FP32">
					<dim>1</dim>
					<dim>64</dim>
					<dim>56</dim>
					<dim>56</dim>
				</port>
				<port id="1" precision="BIN">
					<dim>256</dim>
					<dim>64</dim>
					<dim>1</dim>
					<dim>1</dim>
				</port>
			</input>
			<output>
				<port id="2" precision="FP32">
					<dim>1</dim>
					<dim>256</dim>
					<dim>56</dim>
					<dim>56</dim>
				</port>
			</output>
		</layer>
		<layer id="197" name="Constant_3936" type="Const" version="opset1">
			<data element_type="f32" shape="" offset="39188" size="4"/>
			<output>
				<port id="0" precision="FP32"/>
			</output>
		</layer>
		<layer id="198" name="Multiply_5700" type="Multiply" version="opset1">
			<data auto_broadcast="numpy"/>
			<rt_info>
				<attribute name="fused_names" version="0" value="753, 754, 756, 757, 758, 759, 760, 761, 763, 764, 765, 766, 767"/>
			</rt_info>
			<input>
				<port id="0" precision="FP32">
					<dim>1</dim>
					<dim>256</dim>
					<dim>56</dim>
					<dim>56</dim>
				</port>
				<port id="1" precision="FP32"/>
			</input>
			<output>
				<port id="2" precision="FP32">
					<dim>1</dim>
					<dim>256</dim>
					<dim>56</dim>
					<dim>56</dim>
				</port>
			</output>
		</layer>
		<layer id="199" name="Constant_5702" type="Const" version="opset1">
			<data element_type="f32" shape="256, 1, 1" offset="149848" size="1024"/>
			<output>
				<port id="0" precision="FP32">
					<dim>256</dim>
					<dim>1</dim>
					<dim>1</dim>
				</port>
			</output>
		</layer>
		<layer id="200" name="Multiply_3937" type="Add" version="opset1">
			<data auto_broadcast="numpy"/>
			<rt_info>
				<attribute name="fused_names" version="0" value="753, 754, 756, 757, 758, 759, 760, 761, 763, 764, 765, 766, 767"/>
			</rt_info>
			<input>
				<port id="0" precision="FP32">
					<dim>1</dim>
					<dim>256</dim>
					<dim>56</dim>
					<dim>56</dim>
				</port>
				<port id="1" precision="FP32">
					<dim>256</dim>
					<dim>1</dim>
					<dim>1</dim>
				</port>
			</input>
			<output>
				<port id="2" precision="FP32">
					<dim>1</dim>
					<dim>256</dim>
					<dim>56</dim>
					<dim>56</dim>
				</port>
			</output>
		</layer>
		<layer id="201" name="Reshape_3267" type="Const" version="opset1">
			<data element_type="f32" shape="1, 1, 1" offset="150872" size="4"/>
			<output>
				<port id="0" precision="FP32">
					<dim>1</dim>
					<dim>1</dim>
					<dim>1</dim>
				</port>
			</output>
		</layer>
		<layer id="202" name="Multiply_3270" type="Multiply" version="opset1">
			<data auto_broadcast="numpy"/>
			<rt_info>
				<attribute name="fused_names" version="0" value="753, 754, 756, 757, 758, 759, 760, 761, 763, 764, 765, 766, 767"/>
			</rt_info>
			<input>
				<port id="0" precision="FP32">
					<dim>1</dim>
					<dim>256</dim>
					<dim>56</dim>
					<dim>56</dim>
				</port>
				<port id="1" precision="FP32">
					<dim>1</dim>
					<dim>1</dim>
					<dim>1</dim>
				</port>
			</input>
			<output>
				<port id="2" precision="FP32">
					<dim>1</dim>
					<dim>256</dim>
					<dim>56</dim>
					<dim>56</dim>
				</port>
			</output>
		</layer>
		<layer id="203" name="Reshape_3271" type="Const" version="opset1">
			<data element_type="f32" shape="1, 1, 1" offset="150876" size="4"/>
			<output>
				<port id="0" precision="FP32">
					<dim>1</dim>
					<dim>1</dim>
					<dim>1</dim>
				</port>
			</output>
		</layer>
		<layer id="204" name="767" type="Multiply" version="opset1">
			<data auto_broadcast="numpy"/>
			<rt_info>
				<attribute name="fused_names" version="0" value="753, 754, 756, 757, 758, 759, 760, 761, 763, 764, 765, 766, 767"/>
			</rt_info>
			<input>
				<port id="0" precision="FP32">
					<dim>1</dim>
					<dim>256</dim>
					<dim>56</dim>
					<dim>56</dim>
				</port>
				<port id="1" precision="FP32">
					<dim>1</dim>
					<dim>1</dim>
					<dim>1</dim>
				</port>
			</input>
			<output>
				<port id="2" precision="FP32" names="767">
					<dim>1</dim>
					<dim>256</dim>
					<dim>56</dim>
					<dim>56</dim>
				</port>
			</output>
		</layer>
		<layer id="205" name="Reshape_4696" type="Const" version="opset1">
			<data element_type="f32" shape="1, 256, 1, 1" offset="150880" size="1024"/>
			<output>
				<port id="0" precision="FP32">
					<dim>1</dim>
					<dim>256</dim>
					<dim>1</dim>
					<dim>1</dim>
				</port>
			</output>
		</layer>
		<layer id="206" name="Subtract_4699" type="Subtract" version="opset1">
			<data auto_broadcast="numpy"/>
			<rt_info>
				<attribute name="fused_names" version="0" value="768"/>
			</rt_info>
			<input>
				<port id="0" precision="FP32">
					<dim>1</dim>
					<dim>256</dim>
					<dim>56</dim>
					<dim>56</dim>
				</port>
				<port id="1" precision="FP32">
					<dim>1</dim>
					<dim>256</dim>
					<dim>1</dim>
					<dim>1</dim>
				</port>
			</input>
			<output>
				<port id="2" precision="FP32">
					<dim>1</dim>
					<dim>256</dim>
					<dim>56</dim>
					<dim>56</dim>
				</port>
			</output>
		</layer>
		<layer id="207" name="Reshape_4690" type="Const" version="opset1">
			<data element_type="f32" shape="1, 256, 1, 1" offset="151904" size="1024"/>
			<output>
				<port id="0" precision="FP32">
					<dim>1</dim>
					<dim>256</dim>
					<dim>1</dim>
					<dim>1</dim>
				</port>
			</output>
		</layer>
		<layer id="208" name="Multiply_4700" type="Multiply" version="opset1">
			<data auto_broadcast="numpy"/>
			<rt_info>
				<attribute name="fused_names" version="0" value="768"/>
			</rt_info>
			<input>
				<port id="0" precision="FP32">
					<dim>1</dim>
					<dim>256</dim>
					<dim>56</dim>
					<dim>56</dim>
				</port>
				<port id="1" precision="FP32">
					<dim>1</dim>
					<dim>256</dim>
					<dim>1</dim>
					<dim>1</dim>
				</port>
			</input>
			<output>
				<port id="2" precision="FP32">
					<dim>1</dim>
					<dim>256</dim>
					<dim>56</dim>
					<dim>56</dim>
				</port>
			</output>
		</layer>
		<layer id="209" name="Reshape_4693" type="Const" version="opset1">
			<data element_type="f32" shape="1, 256, 1, 1" offset="152928" size="1024"/>
			<output>
				<port id="0" precision="FP32">
					<dim>1</dim>
					<dim>256</dim>
					<dim>1</dim>
					<dim>1</dim>
				</port>
			</output>
		</layer>
		<layer id="210" name="768" type="Add" version="opset1">
			<data auto_broadcast="numpy"/>
			<rt_info>
				<attribute name="fused_names" version="0" value="768"/>
			</rt_info>
			<input>
				<port id="0" precision="FP32">
					<dim>1</dim>
					<dim>256</dim>
					<dim>56</dim>
					<dim>56</dim>
				</port>
				<port id="1" precision="FP32">
					<dim>1</dim>
					<dim>256</dim>
					<dim>1</dim>
					<dim>1</dim>
				</port>
			</input>
			<output>
				<port id="2" precision="FP32" names="768">
					<dim>1</dim>
					<dim>256</dim>
					<dim>56</dim>
					<dim>56</dim>
				</port>
			</output>
		</layer>
		<layer id="211" name="769" type="Add" version="opset1">
			<data auto_broadcast="numpy"/>
			<rt_info>
				<attribute name="fused_names" version="0" value="769"/>
			</rt_info>
			<input>
				<port id="0" precision="FP32">
					<dim>1</dim>
					<dim>256</dim>
					<dim>56</dim>
					<dim>56</dim>
				</port>
				<port id="1" precision="FP32">
					<dim>1</dim>
					<dim>256</dim>
					<dim>56</dim>
					<dim>56</dim>
				</port>
			</input>
			<output>
				<port id="2" precision="FP32" names="769">
					<dim>1</dim>
					<dim>256</dim>
					<dim>56</dim>
					<dim>56</dim>
				</port>
			</output>
		</layer>
		<layer id="212" name="770" type="ReLU" version="opset1">
			<rt_info>
				<attribute name="fused_names" version="0" value="770"/>
			</rt_info>
			<input>
				<port id="0" precision="FP32">
					<dim>1</dim>
					<dim>256</dim>
					<dim>56</dim>
					<dim>56</dim>
				</port>
			</input>
			<output>
				<port id="1" precision="FP32" names="770">
					<dim>1</dim>
					<dim>256</dim>
					<dim>56</dim>
					<dim>56</dim>
				</port>
			</output>
		</layer>
		<layer id="213" name="776" type="Const" version="opset1">
			<data element_type="f32" shape="1, 256, 1, 1" offset="153952" size="1024"/>
			<output>
				<port id="0" precision="FP32" names="776">
					<dim>1</dim>
					<dim>256</dim>
					<dim>1</dim>
					<dim>1</dim>
				</port>
			</output>
		</layer>
		<layer id="214" name="774" type="Const" version="opset1">
			<data element_type="f32" shape="1, 1, 1, 1" offset="38668" size="4"/>
			<output>
				<port id="0" precision="FP32">
					<dim>1</dim>
					<dim>1</dim>
					<dim>1</dim>
					<dim>1</dim>
				</port>
			</output>
		</layer>
		<layer id="215" name="777" type="Const" version="opset1">
			<data element_type="f32" shape="1, 1, 1, 1" offset="38672" size="4"/>
			<output>
				<port id="0" precision="FP32">
					<dim>1</dim>
					<dim>1</dim>
					<dim>1</dim>
					<dim>1</dim>
				</port>
			</output>
		</layer>
		<layer id="216" name="778" type="FakeQuantize" version="opset1">
			<data levels="2" auto_broadcast="numpy"/>
			<rt_info>
				<attribute name="fused_names" version="0" value="771, 772, 774, 775, 776, 777, 778, 779, 781, 782, 783, 784, 785"/>
			</rt_info>
			<input>
				<port id="0" precision="FP32">
					<dim>1</dim>
					<dim>256</dim>
					<dim>56</dim>
					<dim>56</dim>
				</port>
				<port id="1" precision="FP32">
					<dim>1</dim>
					<dim>256</dim>
					<dim>1</dim>
					<dim>1</dim>
				</port>
				<port id="2" precision="FP32">
					<dim>1</dim>
					<dim>256</dim>
					<dim>1</dim>
					<dim>1</dim>
				</port>
				<port id="3" precision="FP32">
					<dim>1</dim>
					<dim>1</dim>
					<dim>1</dim>
					<dim>1</dim>
				</port>
				<port id="4" precision="FP32">
					<dim>1</dim>
					<dim>1</dim>
					<dim>1</dim>
					<dim>1</dim>
				</port>
			</input>
			<output>
				<port id="5" precision="FP32">
					<dim>1</dim>
					<dim>256</dim>
					<dim>56</dim>
					<dim>56</dim>
				</port>
			</output>
		</layer>
		<layer id="217" name="Constant_3938" type="Const" version="opset1">
			<data element_type="u1" shape="128, 256, 1, 1" offset="154976" size="4096"/>
			<output>
				<port id="0" precision="BIN">
					<dim>128</dim>
					<dim>256</dim>
					<dim>1</dim>
					<dim>1</dim>
				</port>
			</output>
		</layer>
		<layer id="218" name="Convolution_3279" type="BinaryConvolution" version="opset1">
			<data strides="1, 1" pads_begin="0, 0" pads_end="0, 0" dilations="1, 1" mode="xnor-popcount" pad_value="-1" auto_pad="explicit"/>
			<rt_info>
				<attribute name="fused_names" version="0" value="771, 772, 774, 775, 776, 777, 778, 779, 781, 782, 783, 784, 785"/>
			</rt_info>
			<input>
				<port id="0" precision="FP32">
					<dim>1</dim>
					<dim>256</dim>
					<dim>56</dim>
					<dim>56</dim>
				</port>
				<port id="1" precision="BIN">
					<dim>128</dim>
					<dim>256</dim>
					<dim>1</dim>
					<dim>1</dim>
				</port>
			</input>
			<output>
				<port id="2" precision="FP32">
					<dim>1</dim>
					<dim>128</dim>
					<dim>56</dim>
					<dim>56</dim>
				</port>
			</output>
		</layer>
		<layer id="219" name="Constant_3949" type="Const" version="opset1">
			<data element_type="f32" shape="" offset="39188" size="4"/>
			<output>
				<port id="0" precision="FP32"/>
			</output>
		</layer>
		<layer id="220" name="Multiply_5704" type="Multiply" version="opset1">
			<data auto_broadcast="numpy"/>
			<rt_info>
				<attribute name="fused_names" version="0" value="771, 772, 774, 775, 776, 777, 778, 779, 781, 782, 783, 784, 785"/>
			</rt_info>
			<input>
				<port id="0" precision="FP32">
					<dim>1</dim>
					<dim>128</dim>
					<dim>56</dim>
					<dim>56</dim>
				</port>
				<port id="1" precision="FP32"/>
			</input>
			<output>
				<port id="2" precision="FP32">
					<dim>1</dim>
					<dim>128</dim>
					<dim>56</dim>
					<dim>56</dim>
				</port>
			</output>
		</layer>
		<layer id="221" name="Constant_5706" type="Const" version="opset1">
			<data element_type="f32" shape="128, 1, 1" offset="159072" size="512"/>
			<output>
				<port id="0" precision="FP32">
					<dim>128</dim>
					<dim>1</dim>
					<dim>1</dim>
				</port>
			</output>
		</layer>
		<layer id="222" name="Multiply_3950" type="Add" version="opset1">
			<data auto_broadcast="numpy"/>
			<rt_info>
				<attribute name="fused_names" version="0" value="771, 772, 774, 775, 776, 777, 778, 779, 781, 782, 783, 784, 785"/>
			</rt_info>
			<input>
				<port id="0" precision="FP32">
					<dim>1</dim>
					<dim>128</dim>
					<dim>56</dim>
					<dim>56</dim>
				</port>
				<port id="1" precision="FP32">
					<dim>128</dim>
					<dim>1</dim>
					<dim>1</dim>
				</port>
			</input>
			<output>
				<port id="2" precision="FP32">
					<dim>1</dim>
					<dim>128</dim>
					<dim>56</dim>
					<dim>56</dim>
				</port>
			</output>
		</layer>
		<layer id="223" name="Reshape_3281" type="Const" version="opset1">
			<data element_type="f32" shape="1, 1, 1" offset="159584" size="4"/>
			<output>
				<port id="0" precision="FP32">
					<dim>1</dim>
					<dim>1</dim>
					<dim>1</dim>
				</port>
			</output>
		</layer>
		<layer id="224" name="Multiply_3284" type="Multiply" version="opset1">
			<data auto_broadcast="numpy"/>
			<rt_info>
				<attribute name="fused_names" version="0" value="771, 772, 774, 775, 776, 777, 778, 779, 781, 782, 783, 784, 785"/>
			</rt_info>
			<input>
				<port id="0" precision="FP32">
					<dim>1</dim>
					<dim>128</dim>
					<dim>56</dim>
					<dim>56</dim>
				</port>
				<port id="1" precision="FP32">
					<dim>1</dim>
					<dim>1</dim>
					<dim>1</dim>
				</port>
			</input>
			<output>
				<port id="2" precision="FP32">
					<dim>1</dim>
					<dim>128</dim>
					<dim>56</dim>
					<dim>56</dim>
				</port>
			</output>
		</layer>
		<layer id="225" name="Reshape_3285" type="Const" version="opset1">
			<data element_type="f32" shape="1, 1, 1" offset="159588" size="4"/>
			<output>
				<port id="0" precision="FP32">
					<dim>1</dim>
					<dim>1</dim>
					<dim>1</dim>
				</port>
			</output>
		</layer>
		<layer id="226" name="785" type="Multiply" version="opset1">
			<data auto_broadcast="numpy"/>
			<rt_info>
				<attribute name="fused_names" version="0" value="771, 772, 774, 775, 776, 777, 778, 779, 781, 782, 783, 784, 785"/>
			</rt_info>
			<input>
				<port id="0" precision="FP32">
					<dim>1</dim>
					<dim>128</dim>
					<dim>56</dim>
					<dim>56</dim>
				</port>
				<port id="1" precision="FP32">
					<dim>1</dim>
					<dim>1</dim>
					<dim>1</dim>
				</port>
			</input>
			<output>
				<port id="2" precision="FP32" names="785">
					<dim>1</dim>
					<dim>128</dim>
					<dim>56</dim>
					<dim>56</dim>
				</port>
			</output>
		</layer>
		<layer id="227" name="Reshape_4719" type="Const" version="opset1">
			<data element_type="f32" shape="1, 128, 1, 1" offset="159592" size="512"/>
			<output>
				<port id="0" precision="FP32">
					<dim>1</dim>
					<dim>128</dim>
					<dim>1</dim>
					<dim>1</dim>
				</port>
			</output>
		</layer>
		<layer id="228" name="Subtract_4722" type="Subtract" version="opset1">
			<data auto_broadcast="numpy"/>
			<rt_info>
				<attribute name="fused_names" version="0" value="786"/>
			</rt_info>
			<input>
				<port id="0" precision="FP32">
					<dim>1</dim>
					<dim>128</dim>
					<dim>56</dim>
					<dim>56</dim>
				</port>
				<port id="1" precision="FP32">
					<dim>1</dim>
					<dim>128</dim>
					<dim>1</dim>
					<dim>1</dim>
				</port>
			</input>
			<output>
				<port id="2" precision="FP32">
					<dim>1</dim>
					<dim>128</dim>
					<dim>56</dim>
					<dim>56</dim>
				</port>
			</output>
		</layer>
		<layer id="229" name="Reshape_4713" type="Const" version="opset1">
			<data element_type="f32" shape="1, 128, 1, 1" offset="160104" size="512"/>
			<output>
				<port id="0" precision="FP32">
					<dim>1</dim>
					<dim>128</dim>
					<dim>1</dim>
					<dim>1</dim>
				</port>
			</output>
		</layer>
		<layer id="230" name="Multiply_4723" type="Multiply" version="opset1">
			<data auto_broadcast="numpy"/>
			<rt_info>
				<attribute name="fused_names" version="0" value="786"/>
			</rt_info>
			<input>
				<port id="0" precision="FP32">
					<dim>1</dim>
					<dim>128</dim>
					<dim>56</dim>
					<dim>56</dim>
				</port>
				<port id="1" precision="FP32">
					<dim>1</dim>
					<dim>128</dim>
					<dim>1</dim>
					<dim>1</dim>
				</port>
			</input>
			<output>
				<port id="2" precision="FP32">
					<dim>1</dim>
					<dim>128</dim>
					<dim>56</dim>
					<dim>56</dim>
				</port>
			</output>
		</layer>
		<layer id="231" name="Reshape_4716" type="Const" version="opset1">
			<data element_type="f32" shape="1, 128, 1, 1" offset="160616" size="512"/>
			<output>
				<port id="0" precision="FP32">
					<dim>1</dim>
					<dim>128</dim>
					<dim>1</dim>
					<dim>1</dim>
				</port>
			</output>
		</layer>
		<layer id="232" name="786" type="Add" version="opset1">
			<data auto_broadcast="numpy"/>
			<rt_info>
				<attribute name="fused_names" version="0" value="786"/>
			</rt_info>
			<input>
				<port id="0" precision="FP32">
					<dim>1</dim>
					<dim>128</dim>
					<dim>56</dim>
					<dim>56</dim>
				</port>
				<port id="1" precision="FP32">
					<dim>1</dim>
					<dim>128</dim>
					<dim>1</dim>
					<dim>1</dim>
				</port>
			</input>
			<output>
				<port id="2" precision="FP32" names="786">
					<dim>1</dim>
					<dim>128</dim>
					<dim>56</dim>
					<dim>56</dim>
				</port>
			</output>
		</layer>
		<layer id="233" name="787" type="ReLU" version="opset1">
			<rt_info>
				<attribute name="fused_names" version="0" value="787"/>
			</rt_info>
			<input>
				<port id="0" precision="FP32">
					<dim>1</dim>
					<dim>128</dim>
					<dim>56</dim>
					<dim>56</dim>
				</port>
			</input>
			<output>
				<port id="1" precision="FP32" names="787">
					<dim>1</dim>
					<dim>128</dim>
					<dim>56</dim>
					<dim>56</dim>
				</port>
			</output>
		</layer>
		<layer id="234" name="793" type="Const" version="opset1">
			<data element_type="f32" shape="1, 128, 1, 1" offset="161128" size="512"/>
			<output>
				<port id="0" precision="FP32" names="793">
					<dim>1</dim>
					<dim>128</dim>
					<dim>1</dim>
					<dim>1</dim>
				</port>
			</output>
		</layer>
		<layer id="235" name="791" type="Const" version="opset1">
			<data element_type="f32" shape="1, 1, 1, 1" offset="38668" size="4"/>
			<output>
				<port id="0" precision="FP32">
					<dim>1</dim>
					<dim>1</dim>
					<dim>1</dim>
					<dim>1</dim>
				</port>
			</output>
		</layer>
		<layer id="236" name="794" type="Const" version="opset1">
			<data element_type="f32" shape="1, 1, 1, 1" offset="38672" size="4"/>
			<output>
				<port id="0" precision="FP32">
					<dim>1</dim>
					<dim>1</dim>
					<dim>1</dim>
					<dim>1</dim>
				</port>
			</output>
		</layer>
		<layer id="237" name="795" type="FakeQuantize" version="opset1">
			<data levels="2" auto_broadcast="numpy"/>
			<rt_info>
				<attribute name="fused_names" version="0" value="788, 789, 791, 792, 793, 794, 795, 796, 798, 799, 800, 801, 802"/>
			</rt_info>
			<input>
				<port id="0" precision="FP32">
					<dim>1</dim>
					<dim>128</dim>
					<dim>56</dim>
					<dim>56</dim>
				</port>
				<port id="1" precision="FP32">
					<dim>1</dim>
					<dim>128</dim>
					<dim>1</dim>
					<dim>1</dim>
				</port>
				<port id="2" precision="FP32">
					<dim>1</dim>
					<dim>128</dim>
					<dim>1</dim>
					<dim>1</dim>
				</port>
				<port id="3" precision="FP32">
					<dim>1</dim>
					<dim>1</dim>
					<dim>1</dim>
					<dim>1</dim>
				</port>
				<port id="4" precision="FP32">
					<dim>1</dim>
					<dim>1</dim>
					<dim>1</dim>
					<dim>1</dim>
				</port>
			</input>
			<output>
				<port id="5" precision="FP32">
					<dim>1</dim>
					<dim>128</dim>
					<dim>56</dim>
					<dim>56</dim>
				</port>
			</output>
		</layer>
		<layer id="238" name="Constant_3951" type="Const" version="opset1">
			<data element_type="u1" shape="128, 128, 3, 3" offset="161640" size="18432"/>
			<output>
				<port id="0" precision="BIN">
					<dim>128</dim>
					<dim>128</dim>
					<dim>3</dim>
					<dim>3</dim>
				</port>
			</output>
		</layer>
		<layer id="239" name="Convolution_3293" type="BinaryConvolution" version="opset1">
			<data strides="2, 2" pads_begin="1, 1" pads_end="1, 1" dilations="1, 1" mode="xnor-popcount" pad_value="-1" auto_pad="explicit"/>
			<rt_info>
				<attribute name="fused_names" version="0" value="788, 789, 791, 792, 793, 794, 795, 796, 798, 799, 800, 801, 802"/>
			</rt_info>
			<input>
				<port id="0" precision="FP32">
					<dim>1</dim>
					<dim>128</dim>
					<dim>56</dim>
					<dim>56</dim>
				</port>
				<port id="1" precision="BIN">
					<dim>128</dim>
					<dim>128</dim>
					<dim>3</dim>
					<dim>3</dim>
				</port>
			</input>
			<output>
				<port id="2" precision="FP32">
					<dim>1</dim>
					<dim>128</dim>
					<dim>28</dim>
					<dim>28</dim>
				</port>
			</output>
		</layer>
		<layer id="240" name="Constant_3962" type="Const" version="opset1">
			<data element_type="f32" shape="" offset="39188" size="4"/>
			<output>
				<port id="0" precision="FP32"/>
			</output>
		</layer>
		<layer id="241" name="Multiply_5708" type="Multiply" version="opset1">
			<data auto_broadcast="numpy"/>
			<rt_info>
				<attribute name="fused_names" version="0" value="788, 789, 791, 792, 793, 794, 795, 796, 798, 799, 800, 801, 802"/>
			</rt_info>
			<input>
				<port id="0" precision="FP32">
					<dim>1</dim>
					<dim>128</dim>
					<dim>28</dim>
					<dim>28</dim>
				</port>
				<port id="1" precision="FP32"/>
			</input>
			<output>
				<port id="2" precision="FP32">
					<dim>1</dim>
					<dim>128</dim>
					<dim>28</dim>
					<dim>28</dim>
				</port>
			</output>
		</layer>
		<layer id="242" name="Constant_5710" type="Const" version="opset1">
			<data element_type="f32" shape="128, 1, 1" offset="180072" size="512"/>
			<output>
				<port id="0" precision="FP32">
					<dim>128</dim>
					<dim>1</dim>
					<dim>1</dim>
				</port>
			</output>
		</layer>
		<layer id="243" name="Multiply_3963" type="Add" version="opset1">
			<data auto_broadcast="numpy"/>
			<rt_info>
				<attribute name="fused_names" version="0" value="788, 789, 791, 792, 793, 794, 795, 796, 798, 799, 800, 801, 802"/>
			</rt_info>
			<input>
				<port id="0" precision="FP32">
					<dim>1</dim>
					<dim>128</dim>
					<dim>28</dim>
					<dim>28</dim>
				</port>
				<port id="1" precision="FP32">
					<dim>128</dim>
					<dim>1</dim>
					<dim>1</dim>
				</port>
			</input>
			<output>
				<port id="2" precision="FP32">
					<dim>1</dim>
					<dim>128</dim>
					<dim>28</dim>
					<dim>28</dim>
				</port>
			</output>
		</layer>
		<layer id="244" name="Reshape_3295" type="Const" version="opset1">
			<data element_type="f32" shape="1, 1, 1" offset="180584" size="4"/>
			<output>
				<port id="0" precision="FP32">
					<dim>1</dim>
					<dim>1</dim>
					<dim>1</dim>
				</port>
			</output>
		</layer>
		<layer id="245" name="Multiply_3298" type="Multiply" version="opset1">
			<data auto_broadcast="numpy"/>
			<rt_info>
				<attribute name="fused_names" version="0" value="788, 789, 791, 792, 793, 794, 795, 796, 798, 799, 800, 801, 802"/>
			</rt_info>
			<input>
				<port id="0" precision="FP32">
					<dim>1</dim>
					<dim>128</dim>
					<dim>28</dim>
					<dim>28</dim>
				</port>
				<port id="1" precision="FP32">
					<dim>1</dim>
					<dim>1</dim>
					<dim>1</dim>
				</port>
			</input>
			<output>
				<port id="2" precision="FP32">
					<dim>1</dim>
					<dim>128</dim>
					<dim>28</dim>
					<dim>28</dim>
				</port>
			</output>
		</layer>
		<layer id="246" name="Reshape_3299" type="Const" version="opset1">
			<data element_type="f32" shape="1, 1, 1" offset="180588" size="4"/>
			<output>
				<port id="0" precision="FP32">
					<dim>1</dim>
					<dim>1</dim>
					<dim>1</dim>
				</port>
			</output>
		</layer>
		<layer id="247" name="802" type="Multiply" version="opset1">
			<data auto_broadcast="numpy"/>
			<rt_info>
				<attribute name="fused_names" version="0" value="788, 789, 791, 792, 793, 794, 795, 796, 798, 799, 800, 801, 802"/>
			</rt_info>
			<input>
				<port id="0" precision="FP32">
					<dim>1</dim>
					<dim>128</dim>
					<dim>28</dim>
					<dim>28</dim>
				</port>
				<port id="1" precision="FP32">
					<dim>1</dim>
					<dim>1</dim>
					<dim>1</dim>
				</port>
			</input>
			<output>
				<port id="2" precision="FP32" names="802">
					<dim>1</dim>
					<dim>128</dim>
					<dim>28</dim>
					<dim>28</dim>
				</port>
			</output>
		</layer>
		<layer id="248" name="Reshape_4742" type="Const" version="opset1">
			<data element_type="f32" shape="1, 128, 1, 1" offset="180592" size="512"/>
			<output>
				<port id="0" precision="FP32">
					<dim>1</dim>
					<dim>128</dim>
					<dim>1</dim>
					<dim>1</dim>
				</port>
			</output>
		</layer>
		<layer id="249" name="Subtract_4745" type="Subtract" version="opset1">
			<data auto_broadcast="numpy"/>
			<rt_info>
				<attribute name="fused_names" version="0" value="803"/>
			</rt_info>
			<input>
				<port id="0" precision="FP32">
					<dim>1</dim>
					<dim>128</dim>
					<dim>28</dim>
					<dim>28</dim>
				</port>
				<port id="1" precision="FP32">
					<dim>1</dim>
					<dim>128</dim>
					<dim>1</dim>
					<dim>1</dim>
				</port>
			</input>
			<output>
				<port id="2" precision="FP32">
					<dim>1</dim>
					<dim>128</dim>
					<dim>28</dim>
					<dim>28</dim>
				</port>
			</output>
		</layer>
		<layer id="250" name="Reshape_4736" type="Const" version="opset1">
			<data element_type="f32" shape="1, 128, 1, 1" offset="181104" size="512"/>
			<output>
				<port id="0" precision="FP32">
					<dim>1</dim>
					<dim>128</dim>
					<dim>1</dim>
					<dim>1</dim>
				</port>
			</output>
		</layer>
		<layer id="251" name="Multiply_4746" type="Multiply" version="opset1">
			<data auto_broadcast="numpy"/>
			<rt_info>
				<attribute name="fused_names" version="0" value="803"/>
			</rt_info>
			<input>
				<port id="0" precision="FP32">
					<dim>1</dim>
					<dim>128</dim>
					<dim>28</dim>
					<dim>28</dim>
				</port>
				<port id="1" precision="FP32">
					<dim>1</dim>
					<dim>128</dim>
					<dim>1</dim>
					<dim>1</dim>
				</port>
			</input>
			<output>
				<port id="2" precision="FP32">
					<dim>1</dim>
					<dim>128</dim>
					<dim>28</dim>
					<dim>28</dim>
				</port>
			</output>
		</layer>
		<layer id="252" name="Reshape_4739" type="Const" version="opset1">
			<data element_type="f32" shape="1, 128, 1, 1" offset="181616" size="512"/>
			<output>
				<port id="0" precision="FP32">
					<dim>1</dim>
					<dim>128</dim>
					<dim>1</dim>
					<dim>1</dim>
				</port>
			</output>
		</layer>
		<layer id="253" name="803" type="Add" version="opset1">
			<data auto_broadcast="numpy"/>
			<rt_info>
				<attribute name="fused_names" version="0" value="803"/>
			</rt_info>
			<input>
				<port id="0" precision="FP32">
					<dim>1</dim>
					<dim>128</dim>
					<dim>28</dim>
					<dim>28</dim>
				</port>
				<port id="1" precision="FP32">
					<dim>1</dim>
					<dim>128</dim>
					<dim>1</dim>
					<dim>1</dim>
				</port>
			</input>
			<output>
				<port id="2" precision="FP32" names="803">
					<dim>1</dim>
					<dim>128</dim>
					<dim>28</dim>
					<dim>28</dim>
				</port>
			</output>
		</layer>
		<layer id="254" name="804" type="ReLU" version="opset1">
			<rt_info>
				<attribute name="fused_names" version="0" value="804"/>
			</rt_info>
			<input>
				<port id="0" precision="FP32">
					<dim>1</dim>
					<dim>128</dim>
					<dim>28</dim>
					<dim>28</dim>
				</port>
			</input>
			<output>
				<port id="1" precision="FP32" names="804">
					<dim>1</dim>
					<dim>128</dim>
					<dim>28</dim>
					<dim>28</dim>
				</port>
			</output>
		</layer>
		<layer id="255" name="810" type="Const" version="opset1">
			<data element_type="f32" shape="1, 128, 1, 1" offset="182128" size="512"/>
			<output>
				<port id="0" precision="FP32" names="810">
					<dim>1</dim>
					<dim>128</dim>
					<dim>1</dim>
					<dim>1</dim>
				</port>
			</output>
		</layer>
		<layer id="256" name="808" type="Const" version="opset1">
			<data element_type="f32" shape="1, 1, 1, 1" offset="38668" size="4"/>
			<output>
				<port id="0" precision="FP32">
					<dim>1</dim>
					<dim>1</dim>
					<dim>1</dim>
					<dim>1</dim>
				</port>
			</output>
		</layer>
		<layer id="257" name="811" type="Const" version="opset1">
			<data element_type="f32" shape="1, 1, 1, 1" offset="38672" size="4"/>
			<output>
				<port id="0" precision="FP32">
					<dim>1</dim>
					<dim>1</dim>
					<dim>1</dim>
					<dim>1</dim>
				</port>
			</output>
		</layer>
		<layer id="258" name="812" type="FakeQuantize" version="opset1">
			<data levels="2" auto_broadcast="numpy"/>
			<rt_info>
				<attribute name="fused_names" version="0" value="805, 806, 808, 809, 810, 811, 812, 813, 815, 816, 817, 818, 819"/>
			</rt_info>
			<input>
				<port id="0" precision="FP32">
					<dim>1</dim>
					<dim>128</dim>
					<dim>28</dim>
					<dim>28</dim>
				</port>
				<port id="1" precision="FP32">
					<dim>1</dim>
					<dim>128</dim>
					<dim>1</dim>
					<dim>1</dim>
				</port>
				<port id="2" precision="FP32">
					<dim>1</dim>
					<dim>128</dim>
					<dim>1</dim>
					<dim>1</dim>
				</port>
				<port id="3" precision="FP32">
					<dim>1</dim>
					<dim>1</dim>
					<dim>1</dim>
					<dim>1</dim>
				</port>
				<port id="4" precision="FP32">
					<dim>1</dim>
					<dim>1</dim>
					<dim>1</dim>
					<dim>1</dim>
				</port>
			</input>
			<output>
				<port id="5" precision="FP32">
					<dim>1</dim>
					<dim>128</dim>
					<dim>28</dim>
					<dim>28</dim>
				</port>
			</output>
		</layer>
		<layer id="259" name="Constant_3964" type="Const" version="opset1">
			<data element_type="u1" shape="512, 128, 1, 1" offset="182640" size="8192"/>
			<output>
				<port id="0" precision="BIN">
					<dim>512</dim>
					<dim>128</dim>
					<dim>1</dim>
					<dim>1</dim>
				</port>
			</output>
		</layer>
		<layer id="260" name="Convolution_3307" type="BinaryConvolution" version="opset1">
			<data strides="1, 1" pads_begin="0, 0" pads_end="0, 0" dilations="1, 1" mode="xnor-popcount" pad_value="-1" auto_pad="explicit"/>
			<rt_info>
				<attribute name="fused_names" version="0" value="805, 806, 808, 809, 810, 811, 812, 813, 815, 816, 817, 818, 819"/>
			</rt_info>
			<input>
				<port id="0" precision="FP32">
					<dim>1</dim>
					<dim>128</dim>
					<dim>28</dim>
					<dim>28</dim>
				</port>
				<port id="1" precision="BIN">
					<dim>512</dim>
					<dim>128</dim>
					<dim>1</dim>
					<dim>1</dim>
				</port>
			</input>
			<output>
				<port id="2" precision="FP32">
					<dim>1</dim>
					<dim>512</dim>
					<dim>28</dim>
					<dim>28</dim>
				</port>
			</output>
		</layer>
		<layer id="261" name="Constant_3975" type="Const" version="opset1">
			<data element_type="f32" shape="" offset="39188" size="4"/>
			<output>
				<port id="0" precision="FP32"/>
			</output>
		</layer>
		<layer id="262" name="Multiply_5712" type="Multiply" version="opset1">
			<data auto_broadcast="numpy"/>
			<rt_info>
				<attribute name="fused_names" version="0" value="805, 806, 808, 809, 810, 811, 812, 813, 815, 816, 817, 818, 819"/>
			</rt_info>
			<input>
				<port id="0" precision="FP32">
					<dim>1</dim>
					<dim>512</dim>
					<dim>28</dim>
					<dim>28</dim>
				</port>
				<port id="1" precision="FP32"/>
			</input>
			<output>
				<port id="2" precision="FP32">
					<dim>1</dim>
					<dim>512</dim>
					<dim>28</dim>
					<dim>28</dim>
				</port>
			</output>
		</layer>
		<layer id="263" name="Constant_5714" type="Const" version="opset1">
			<data element_type="f32" shape="512, 1, 1" offset="190832" size="2048"/>
			<output>
				<port id="0" precision="FP32">
					<dim>512</dim>
					<dim>1</dim>
					<dim>1</dim>
				</port>
			</output>
		</layer>
		<layer id="264" name="Multiply_3976" type="Add" version="opset1">
			<data auto_broadcast="numpy"/>
			<rt_info>
				<attribute name="fused_names" version="0" value="805, 806, 808, 809, 810, 811, 812, 813, 815, 816, 817, 818, 819"/>
			</rt_info>
			<input>
				<port id="0" precision="FP32">
					<dim>1</dim>
					<dim>512</dim>
					<dim>28</dim>
					<dim>28</dim>
				</port>
				<port id="1" precision="FP32">
					<dim>512</dim>
					<dim>1</dim>
					<dim>1</dim>
				</port>
			</input>
			<output>
				<port id="2" precision="FP32">
					<dim>1</dim>
					<dim>512</dim>
					<dim>28</dim>
					<dim>28</dim>
				</port>
			</output>
		</layer>
		<layer id="265" name="Reshape_3309" type="Const" version="opset1">
			<data element_type="f32" shape="1, 1, 1" offset="192880" size="4"/>
			<output>
				<port id="0" precision="FP32">
					<dim>1</dim>
					<dim>1</dim>
					<dim>1</dim>
				</port>
			</output>
		</layer>
		<layer id="266" name="Multiply_3312" type="Multiply" version="opset1">
			<data auto_broadcast="numpy"/>
			<rt_info>
				<attribute name="fused_names" version="0" value="805, 806, 808, 809, 810, 811, 812, 813, 815, 816, 817, 818, 819"/>
			</rt_info>
			<input>
				<port id="0" precision="FP32">
					<dim>1</dim>
					<dim>512</dim>
					<dim>28</dim>
					<dim>28</dim>
				</port>
				<port id="1" precision="FP32">
					<dim>1</dim>
					<dim>1</dim>
					<dim>1</dim>
				</port>
			</input>
			<output>
				<port id="2" precision="FP32">
					<dim>1</dim>
					<dim>512</dim>
					<dim>28</dim>
					<dim>28</dim>
				</port>
			</output>
		</layer>
		<layer id="267" name="Reshape_3313" type="Const" version="opset1">
			<data element_type="f32" shape="1, 1, 1" offset="192884" size="4"/>
			<output>
				<port id="0" precision="FP32">
					<dim>1</dim>
					<dim>1</dim>
					<dim>1</dim>
				</port>
			</output>
		</layer>
		<layer id="268" name="819" type="Multiply" version="opset1">
			<data auto_broadcast="numpy"/>
			<rt_info>
				<attribute name="fused_names" version="0" value="805, 806, 808, 809, 810, 811, 812, 813, 815, 816, 817, 818, 819"/>
			</rt_info>
			<input>
				<port id="0" precision="FP32">
					<dim>1</dim>
					<dim>512</dim>
					<dim>28</dim>
					<dim>28</dim>
				</port>
				<port id="1" precision="FP32">
					<dim>1</dim>
					<dim>1</dim>
					<dim>1</dim>
				</port>
			</input>
			<output>
				<port id="2" precision="FP32" names="819">
					<dim>1</dim>
					<dim>512</dim>
					<dim>28</dim>
					<dim>28</dim>
				</port>
			</output>
		</layer>
		<layer id="269" name="Reshape_4765" type="Const" version="opset1">
			<data element_type="f32" shape="1, 512, 1, 1" offset="192888" size="2048"/>
			<output>
				<port id="0" precision="FP32">
					<dim>1</dim>
					<dim>512</dim>
					<dim>1</dim>
					<dim>1</dim>
				</port>
			</output>
		</layer>
		<layer id="270" name="Subtract_4768" type="Subtract" version="opset1">
			<data auto_broadcast="numpy"/>
			<rt_info>
				<attribute name="fused_names" version="0" value="820"/>
			</rt_info>
			<input>
				<port id="0" precision="FP32">
					<dim>1</dim>
					<dim>512</dim>
					<dim>28</dim>
					<dim>28</dim>
				</port>
				<port id="1" precision="FP32">
					<dim>1</dim>
					<dim>512</dim>
					<dim>1</dim>
					<dim>1</dim>
				</port>
			</input>
			<output>
				<port id="2" precision="FP32">
					<dim>1</dim>
					<dim>512</dim>
					<dim>28</dim>
					<dim>28</dim>
				</port>
			</output>
		</layer>
		<layer id="271" name="Reshape_4759" type="Const" version="opset1">
			<data element_type="f32" shape="1, 512, 1, 1" offset="194936" size="2048"/>
			<output>
				<port id="0" precision="FP32">
					<dim>1</dim>
					<dim>512</dim>
					<dim>1</dim>
					<dim>1</dim>
				</port>
			</output>
		</layer>
		<layer id="272" name="Multiply_4769" type="Multiply" version="opset1">
			<data auto_broadcast="numpy"/>
			<rt_info>
				<attribute name="fused_names" version="0" value="820"/>
			</rt_info>
			<input>
				<port id="0" precision="FP32">
					<dim>1</dim>
					<dim>512</dim>
					<dim>28</dim>
					<dim>28</dim>
				</port>
				<port id="1" precision="FP32">
					<dim>1</dim>
					<dim>512</dim>
					<dim>1</dim>
					<dim>1</dim>
				</port>
			</input>
			<output>
				<port id="2" precision="FP32">
					<dim>1</dim>
					<dim>512</dim>
					<dim>28</dim>
					<dim>28</dim>
				</port>
			</output>
		</layer>
		<layer id="273" name="Reshape_4762" type="Const" version="opset1">
			<data element_type="f32" shape="1, 512, 1, 1" offset="196984" size="2048"/>
			<output>
				<port id="0" precision="FP32">
					<dim>1</dim>
					<dim>512</dim>
					<dim>1</dim>
					<dim>1</dim>
				</port>
			</output>
		</layer>
		<layer id="274" name="820" type="Add" version="opset1">
			<data auto_broadcast="numpy"/>
			<rt_info>
				<attribute name="fused_names" version="0" value="820"/>
			</rt_info>
			<input>
				<port id="0" precision="FP32">
					<dim>1</dim>
					<dim>512</dim>
					<dim>28</dim>
					<dim>28</dim>
				</port>
				<port id="1" precision="FP32">
					<dim>1</dim>
					<dim>512</dim>
					<dim>1</dim>
					<dim>1</dim>
				</port>
			</input>
			<output>
				<port id="2" precision="FP32" names="820">
					<dim>1</dim>
					<dim>512</dim>
					<dim>28</dim>
					<dim>28</dim>
				</port>
			</output>
		</layer>
		<layer id="275" name="157" type="Const" version="opset1">
			<data element_type="f32" shape="512, 256, 1, 1" offset="199032" size="524288"/>
			<rt_info>
				<attribute name="fused_names" version="0" value="157"/>
			</rt_info>
			<output>
				<port id="0" precision="FP32" names="157">
					<dim>512</dim>
					<dim>256</dim>
					<dim>1</dim>
					<dim>1</dim>
				</port>
			</output>
		</layer>
		<layer id="276" name="821" type="Convolution" version="opset1">
			<data strides="2, 2" dilations="1, 1" pads_begin="0, 0" pads_end="0, 0" auto_pad="explicit"/>
			<rt_info>
				<attribute name="fused_names" version="0" value="821"/>
			</rt_info>
			<input>
				<port id="0" precision="FP32">
					<dim>1</dim>
					<dim>256</dim>
					<dim>56</dim>
					<dim>56</dim>
				</port>
				<port id="1" precision="FP32">
					<dim>512</dim>
					<dim>256</dim>
					<dim>1</dim>
					<dim>1</dim>
				</port>
			</input>
			<output>
				<port id="2" precision="FP32" names="821">
					<dim>1</dim>
					<dim>512</dim>
					<dim>28</dim>
					<dim>28</dim>
				</port>
			</output>
		</layer>
		<layer id="277" name="Reshape_4788" type="Const" version="opset1">
			<data element_type="f32" shape="1, 512, 1, 1" offset="723320" size="2048"/>
			<output>
				<port id="0" precision="FP32">
					<dim>1</dim>
					<dim>512</dim>
					<dim>1</dim>
					<dim>1</dim>
				</port>
			</output>
		</layer>
		<layer id="278" name="Subtract_4791" type="Subtract" version="opset1">
			<data auto_broadcast="numpy"/>
			<rt_info>
				<attribute name="fused_names" version="0" value="822"/>
			</rt_info>
			<input>
				<port id="0" precision="FP32">
					<dim>1</dim>
					<dim>512</dim>
					<dim>28</dim>
					<dim>28</dim>
				</port>
				<port id="1" precision="FP32">
					<dim>1</dim>
					<dim>512</dim>
					<dim>1</dim>
					<dim>1</dim>
				</port>
			</input>
			<output>
				<port id="2" precision="FP32">
					<dim>1</dim>
					<dim>512</dim>
					<dim>28</dim>
					<dim>28</dim>
				</port>
			</output>
		</layer>
		<layer id="279" name="Reshape_4782" type="Const" version="opset1">
			<data element_type="f32" shape="1, 512, 1, 1" offset="725368" size="2048"/>
			<output>
				<port id="0" precision="FP32">
					<dim>1</dim>
					<dim>512</dim>
					<dim>1</dim>
					<dim>1</dim>
				</port>
			</output>
		</layer>
		<layer id="280" name="Multiply_4792" type="Multiply" version="opset1">
			<data auto_broadcast="numpy"/>
			<rt_info>
				<attribute name="fused_names" version="0" value="822"/>
			</rt_info>
			<input>
				<port id="0" precision="FP32">
					<dim>1</dim>
					<dim>512</dim>
					<dim>28</dim>
					<dim>28</dim>
				</port>
				<port id="1" precision="FP32">
					<dim>1</dim>
					<dim>512</dim>
					<dim>1</dim>
					<dim>1</dim>
				</port>
			</input>
			<output>
				<port id="2" precision="FP32">
					<dim>1</dim>
					<dim>512</dim>
					<dim>28</dim>
					<dim>28</dim>
				</port>
			</output>
		</layer>
		<layer id="281" name="Reshape_4785" type="Const" version="opset1">
			<data element_type="f32" shape="1, 512, 1, 1" offset="727416" size="2048"/>
			<output>
				<port id="0" precision="FP32">
					<dim>1</dim>
					<dim>512</dim>
					<dim>1</dim>
					<dim>1</dim>
				</port>
			</output>
		</layer>
		<layer id="282" name="822" type="Add" version="opset1">
			<data auto_broadcast="numpy"/>
			<rt_info>
				<attribute name="fused_names" version="0" value="822"/>
			</rt_info>
			<input>
				<port id="0" precision="FP32">
					<dim>1</dim>
					<dim>512</dim>
					<dim>28</dim>
					<dim>28</dim>
				</port>
				<port id="1" precision="FP32">
					<dim>1</dim>
					<dim>512</dim>
					<dim>1</dim>
					<dim>1</dim>
				</port>
			</input>
			<output>
				<port id="2" precision="FP32" names="822">
					<dim>1</dim>
					<dim>512</dim>
					<dim>28</dim>
					<dim>28</dim>
				</port>
			</output>
		</layer>
		<layer id="283" name="823" type="Add" version="opset1">
			<data auto_broadcast="numpy"/>
			<rt_info>
				<attribute name="fused_names" version="0" value="823"/>
			</rt_info>
			<input>
				<port id="0" precision="FP32">
					<dim>1</dim>
					<dim>512</dim>
					<dim>28</dim>
					<dim>28</dim>
				</port>
				<port id="1" precision="FP32">
					<dim>1</dim>
					<dim>512</dim>
					<dim>28</dim>
					<dim>28</dim>
				</port>
			</input>
			<output>
				<port id="2" precision="FP32" names="823">
					<dim>1</dim>
					<dim>512</dim>
					<dim>28</dim>
					<dim>28</dim>
				</port>
			</output>
		</layer>
		<layer id="284" name="824" type="ReLU" version="opset1">
			<rt_info>
				<attribute name="fused_names" version="0" value="824"/>
			</rt_info>
			<input>
				<port id="0" precision="FP32">
					<dim>1</dim>
					<dim>512</dim>
					<dim>28</dim>
					<dim>28</dim>
				</port>
			</input>
			<output>
				<port id="1" precision="FP32" names="824">
					<dim>1</dim>
					<dim>512</dim>
					<dim>28</dim>
					<dim>28</dim>
				</port>
			</output>
		</layer>
		<layer id="285" name="830" type="Const" version="opset1">
			<data element_type="f32" shape="1, 512, 1, 1" offset="729464" size="2048"/>
			<output>
				<port id="0" precision="FP32" names="830">
					<dim>1</dim>
					<dim>512</dim>
					<dim>1</dim>
					<dim>1</dim>
				</port>
			</output>
		</layer>
		<layer id="286" name="828" type="Const" version="opset1">
			<data element_type="f32" shape="1, 1, 1, 1" offset="38668" size="4"/>
			<output>
				<port id="0" precision="FP32">
					<dim>1</dim>
					<dim>1</dim>
					<dim>1</dim>
					<dim>1</dim>
				</port>
			</output>
		</layer>
		<layer id="287" name="831" type="Const" version="opset1">
			<data element_type="f32" shape="1, 1, 1, 1" offset="38672" size="4"/>
			<output>
				<port id="0" precision="FP32">
					<dim>1</dim>
					<dim>1</dim>
					<dim>1</dim>
					<dim>1</dim>
				</port>
			</output>
		</layer>
		<layer id="288" name="832" type="FakeQuantize" version="opset1">
			<data levels="2" auto_broadcast="numpy"/>
			<rt_info>
				<attribute name="fused_names" version="0" value="825, 826, 828, 829, 830, 831, 832, 833, 835, 836, 837, 838, 839"/>
			</rt_info>
			<input>
				<port id="0" precision="FP32">
					<dim>1</dim>
					<dim>512</dim>
					<dim>28</dim>
					<dim>28</dim>
				</port>
				<port id="1" precision="FP32">
					<dim>1</dim>
					<dim>512</dim>
					<dim>1</dim>
					<dim>1</dim>
				</port>
				<port id="2" precision="FP32">
					<dim>1</dim>
					<dim>512</dim>
					<dim>1</dim>
					<dim>1</dim>
				</port>
				<port id="3" precision="FP32">
					<dim>1</dim>
					<dim>1</dim>
					<dim>1</dim>
					<dim>1</dim>
				</port>
				<port id="4" precision="FP32">
					<dim>1</dim>
					<dim>1</dim>
					<dim>1</dim>
					<dim>1</dim>
				</port>
			</input>
			<output>
				<port id="5" precision="FP32">
					<dim>1</dim>
					<dim>512</dim>
					<dim>28</dim>
					<dim>28</dim>
				</port>
			</output>
		</layer>
		<layer id="289" name="Constant_3977" type="Const" version="opset1">
			<data element_type="u1" shape="128, 512, 1, 1" offset="731512" size="8192"/>
			<output>
				<port id="0" precision="BIN">
					<dim>128</dim>
					<dim>512</dim>
					<dim>1</dim>
					<dim>1</dim>
				</port>
			</output>
		</layer>
		<layer id="290" name="Convolution_3321" type="BinaryConvolution" version="opset1">
			<data strides="1, 1" pads_begin="0, 0" pads_end="0, 0" dilations="1, 1" mode="xnor-popcount" pad_value="-1" auto_pad="explicit"/>
			<rt_info>
				<attribute name="fused_names" version="0" value="825, 826, 828, 829, 830, 831, 832, 833, 835, 836, 837, 838, 839"/>
			</rt_info>
			<input>
				<port id="0" precision="FP32">
					<dim>1</dim>
					<dim>512</dim>
					<dim>28</dim>
					<dim>28</dim>
				</port>
				<port id="1" precision="BIN">
					<dim>128</dim>
					<dim>512</dim>
					<dim>1</dim>
					<dim>1</dim>
				</port>
			</input>
			<output>
				<port id="2" precision="FP32">
					<dim>1</dim>
					<dim>128</dim>
					<dim>28</dim>
					<dim>28</dim>
				</port>
			</output>
		</layer>
		<layer id="291" name="Constant_3988" type="Const" version="opset1">
			<data element_type="f32" shape="" offset="39188" size="4"/>
			<output>
				<port id="0" precision="FP32"/>
			</output>
		</layer>
		<layer id="292" name="Multiply_5716" type="Multiply" version="opset1">
			<data auto_broadcast="numpy"/>
			<rt_info>
				<attribute name="fused_names" version="0" value="825, 826, 828, 829, 830, 831, 832, 833, 835, 836, 837, 838, 839"/>
			</rt_info>
			<input>
				<port id="0" precision="FP32">
					<dim>1</dim>
					<dim>128</dim>
					<dim>28</dim>
					<dim>28</dim>
				</port>
				<port id="1" precision="FP32"/>
			</input>
			<output>
				<port id="2" precision="FP32">
					<dim>1</dim>
					<dim>128</dim>
					<dim>28</dim>
					<dim>28</dim>
				</port>
			</output>
		</layer>
		<layer id="293" name="Constant_5718" type="Const" version="opset1">
			<data element_type="f32" shape="128, 1, 1" offset="739704" size="512"/>
			<output>
				<port id="0" precision="FP32">
					<dim>128</dim>
					<dim>1</dim>
					<dim>1</dim>
				</port>
			</output>
		</layer>
		<layer id="294" name="Multiply_3989" type="Add" version="opset1">
			<data auto_broadcast="numpy"/>
			<rt_info>
				<attribute name="fused_names" version="0" value="825, 826, 828, 829, 830, 831, 832, 833, 835, 836, 837, 838, 839"/>
			</rt_info>
			<input>
				<port id="0" precision="FP32">
					<dim>1</dim>
					<dim>128</dim>
					<dim>28</dim>
					<dim>28</dim>
				</port>
				<port id="1" precision="FP32">
					<dim>128</dim>
					<dim>1</dim>
					<dim>1</dim>
				</port>
			</input>
			<output>
				<port id="2" precision="FP32">
					<dim>1</dim>
					<dim>128</dim>
					<dim>28</dim>
					<dim>28</dim>
				</port>
			</output>
		</layer>
		<layer id="295" name="Reshape_3323" type="Const" version="opset1">
			<data element_type="f32" shape="1, 1, 1" offset="740216" size="4"/>
			<output>
				<port id="0" precision="FP32">
					<dim>1</dim>
					<dim>1</dim>
					<dim>1</dim>
				</port>
			</output>
		</layer>
		<layer id="296" name="Multiply_3326" type="Multiply" version="opset1">
			<data auto_broadcast="numpy"/>
			<rt_info>
				<attribute name="fused_names" version="0" value="825, 826, 828, 829, 830, 831, 832, 833, 835, 836, 837, 838, 839"/>
			</rt_info>
			<input>
				<port id="0" precision="FP32">
					<dim>1</dim>
					<dim>128</dim>
					<dim>28</dim>
					<dim>28</dim>
				</port>
				<port id="1" precision="FP32">
					<dim>1</dim>
					<dim>1</dim>
					<dim>1</dim>
				</port>
			</input>
			<output>
				<port id="2" precision="FP32">
					<dim>1</dim>
					<dim>128</dim>
					<dim>28</dim>
					<dim>28</dim>
				</port>
			</output>
		</layer>
		<layer id="297" name="Reshape_3327" type="Const" version="opset1">
			<data element_type="f32" shape="1, 1, 1" offset="740220" size="4"/>
			<output>
				<port id="0" precision="FP32">
					<dim>1</dim>
					<dim>1</dim>
					<dim>1</dim>
				</port>
			</output>
		</layer>
		<layer id="298" name="839" type="Multiply" version="opset1">
			<data auto_broadcast="numpy"/>
			<rt_info>
				<attribute name="fused_names" version="0" value="825, 826, 828, 829, 830, 831, 832, 833, 835, 836, 837, 838, 839"/>
			</rt_info>
			<input>
				<port id="0" precision="FP32">
					<dim>1</dim>
					<dim>128</dim>
					<dim>28</dim>
					<dim>28</dim>
				</port>
				<port id="1" precision="FP32">
					<dim>1</dim>
					<dim>1</dim>
					<dim>1</dim>
				</port>
			</input>
			<output>
				<port id="2" precision="FP32" names="839">
					<dim>1</dim>
					<dim>128</dim>
					<dim>28</dim>
					<dim>28</dim>
				</port>
			</output>
		</layer>
		<layer id="299" name="Reshape_4811" type="Const" version="opset1">
			<data element_type="f32" shape="1, 128, 1, 1" offset="740224" size="512"/>
			<output>
				<port id="0" precision="FP32">
					<dim>1</dim>
					<dim>128</dim>
					<dim>1</dim>
					<dim>1</dim>
				</port>
			</output>
		</layer>
		<layer id="300" name="Subtract_4814" type="Subtract" version="opset1">
			<data auto_broadcast="numpy"/>
			<rt_info>
				<attribute name="fused_names" version="0" value="840"/>
			</rt_info>
			<input>
				<port id="0" precision="FP32">
					<dim>1</dim>
					<dim>128</dim>
					<dim>28</dim>
					<dim>28</dim>
				</port>
				<port id="1" precision="FP32">
					<dim>1</dim>
					<dim>128</dim>
					<dim>1</dim>
					<dim>1</dim>
				</port>
			</input>
			<output>
				<port id="2" precision="FP32">
					<dim>1</dim>
					<dim>128</dim>
					<dim>28</dim>
					<dim>28</dim>
				</port>
			</output>
		</layer>
		<layer id="301" name="Reshape_4805" type="Const" version="opset1">
			<data element_type="f32" shape="1, 128, 1, 1" offset="740736" size="512"/>
			<output>
				<port id="0" precision="FP32">
					<dim>1</dim>
					<dim>128</dim>
					<dim>1</dim>
					<dim>1</dim>
				</port>
			</output>
		</layer>
		<layer id="302" name="Multiply_4815" type="Multiply" version="opset1">
			<data auto_broadcast="numpy"/>
			<rt_info>
				<attribute name="fused_names" version="0" value="840"/>
			</rt_info>
			<input>
				<port id="0" precision="FP32">
					<dim>1</dim>
					<dim>128</dim>
					<dim>28</dim>
					<dim>28</dim>
				</port>
				<port id="1" precision="FP32">
					<dim>1</dim>
					<dim>128</dim>
					<dim>1</dim>
					<dim>1</dim>
				</port>
			</input>
			<output>
				<port id="2" precision="FP32">
					<dim>1</dim>
					<dim>128</dim>
					<dim>28</dim>
					<dim>28</dim>
				</port>
			</output>
		</layer>
		<layer id="303" name="Reshape_4808" type="Const" version="opset1">
			<data element_type="f32" shape="1, 128, 1, 1" offset="741248" size="512"/>
			<output>
				<port id="0" precision="FP32">
					<dim>1</dim>
					<dim>128</dim>
					<dim>1</dim>
					<dim>1</dim>
				</port>
			</output>
		</layer>
		<layer id="304" name="840" type="Add" version="opset1">
			<data auto_broadcast="numpy"/>
			<rt_info>
				<attribute name="fused_names" version="0" value="840"/>
			</rt_info>
			<input>
				<port id="0" precision="FP32">
					<dim>1</dim>
					<dim>128</dim>
					<dim>28</dim>
					<dim>28</dim>
				</port>
				<port id="1" precision="FP32">
					<dim>1</dim>
					<dim>128</dim>
					<dim>1</dim>
					<dim>1</dim>
				</port>
			</input>
			<output>
				<port id="2" precision="FP32" names="840">
					<dim>1</dim>
					<dim>128</dim>
					<dim>28</dim>
					<dim>28</dim>
				</port>
			</output>
		</layer>
		<layer id="305" name="841" type="ReLU" version="opset1">
			<rt_info>
				<attribute name="fused_names" version="0" value="841"/>
			</rt_info>
			<input>
				<port id="0" precision="FP32">
					<dim>1</dim>
					<dim>128</dim>
					<dim>28</dim>
					<dim>28</dim>
				</port>
			</input>
			<output>
				<port id="1" precision="FP32" names="841">
					<dim>1</dim>
					<dim>128</dim>
					<dim>28</dim>
					<dim>28</dim>
				</port>
			</output>
		</layer>
		<layer id="306" name="847" type="Const" version="opset1">
			<data element_type="f32" shape="1, 128, 1, 1" offset="741760" size="512"/>
			<output>
				<port id="0" precision="FP32" names="847">
					<dim>1</dim>
					<dim>128</dim>
					<dim>1</dim>
					<dim>1</dim>
				</port>
			</output>
		</layer>
		<layer id="307" name="845" type="Const" version="opset1">
			<data element_type="f32" shape="1, 1, 1, 1" offset="38668" size="4"/>
			<output>
				<port id="0" precision="FP32">
					<dim>1</dim>
					<dim>1</dim>
					<dim>1</dim>
					<dim>1</dim>
				</port>
			</output>
		</layer>
		<layer id="308" name="848" type="Const" version="opset1">
			<data element_type="f32" shape="1, 1, 1, 1" offset="38672" size="4"/>
			<output>
				<port id="0" precision="FP32">
					<dim>1</dim>
					<dim>1</dim>
					<dim>1</dim>
					<dim>1</dim>
				</port>
			</output>
		</layer>
		<layer id="309" name="849" type="FakeQuantize" version="opset1">
			<data levels="2" auto_broadcast="numpy"/>
			<rt_info>
				<attribute name="fused_names" version="0" value="842, 843, 845, 846, 847, 848, 849, 850, 852, 853, 854, 855, 856"/>
			</rt_info>
			<input>
				<port id="0" precision="FP32">
					<dim>1</dim>
					<dim>128</dim>
					<dim>28</dim>
					<dim>28</dim>
				</port>
				<port id="1" precision="FP32">
					<dim>1</dim>
					<dim>128</dim>
					<dim>1</dim>
					<dim>1</dim>
				</port>
				<port id="2" precision="FP32">
					<dim>1</dim>
					<dim>128</dim>
					<dim>1</dim>
					<dim>1</dim>
				</port>
				<port id="3" precision="FP32">
					<dim>1</dim>
					<dim>1</dim>
					<dim>1</dim>
					<dim>1</dim>
				</port>
				<port id="4" precision="FP32">
					<dim>1</dim>
					<dim>1</dim>
					<dim>1</dim>
					<dim>1</dim>
				</port>
			</input>
			<output>
				<port id="5" precision="FP32">
					<dim>1</dim>
					<dim>128</dim>
					<dim>28</dim>
					<dim>28</dim>
				</port>
			</output>
		</layer>
		<layer id="310" name="Constant_3990" type="Const" version="opset1">
			<data element_type="u1" shape="128, 128, 3, 3" offset="742272" size="18432"/>
			<output>
				<port id="0" precision="BIN">
					<dim>128</dim>
					<dim>128</dim>
					<dim>3</dim>
					<dim>3</dim>
				</port>
			</output>
		</layer>
		<layer id="311" name="Convolution_3335" type="BinaryConvolution" version="opset1">
			<data strides="1, 1" pads_begin="1, 1" pads_end="1, 1" dilations="1, 1" mode="xnor-popcount" pad_value="-1" auto_pad="explicit"/>
			<rt_info>
				<attribute name="fused_names" version="0" value="842, 843, 845, 846, 847, 848, 849, 850, 852, 853, 854, 855, 856"/>
			</rt_info>
			<input>
				<port id="0" precision="FP32">
					<dim>1</dim>
					<dim>128</dim>
					<dim>28</dim>
					<dim>28</dim>
				</port>
				<port id="1" precision="BIN">
					<dim>128</dim>
					<dim>128</dim>
					<dim>3</dim>
					<dim>3</dim>
				</port>
			</input>
			<output>
				<port id="2" precision="FP32">
					<dim>1</dim>
					<dim>128</dim>
					<dim>28</dim>
					<dim>28</dim>
				</port>
			</output>
		</layer>
		<layer id="312" name="Constant_4001" type="Const" version="opset1">
			<data element_type="f32" shape="" offset="39188" size="4"/>
			<output>
				<port id="0" precision="FP32"/>
			</output>
		</layer>
		<layer id="313" name="Multiply_5720" type="Multiply" version="opset1">
			<data auto_broadcast="numpy"/>
			<rt_info>
				<attribute name="fused_names" version="0" value="842, 843, 845, 846, 847, 848, 849, 850, 852, 853, 854, 855, 856"/>
			</rt_info>
			<input>
				<port id="0" precision="FP32">
					<dim>1</dim>
					<dim>128</dim>
					<dim>28</dim>
					<dim>28</dim>
				</port>
				<port id="1" precision="FP32"/>
			</input>
			<output>
				<port id="2" precision="FP32">
					<dim>1</dim>
					<dim>128</dim>
					<dim>28</dim>
					<dim>28</dim>
				</port>
			</output>
		</layer>
		<layer id="314" name="Constant_5722" type="Const" version="opset1">
			<data element_type="f32" shape="128, 1, 1" offset="760704" size="512"/>
			<output>
				<port id="0" precision="FP32">
					<dim>128</dim>
					<dim>1</dim>
					<dim>1</dim>
				</port>
			</output>
		</layer>
		<layer id="315" name="Multiply_4002" type="Add" version="opset1">
			<data auto_broadcast="numpy"/>
			<rt_info>
				<attribute name="fused_names" version="0" value="842, 843, 845, 846, 847, 848, 849, 850, 852, 853, 854, 855, 856"/>
			</rt_info>
			<input>
				<port id="0" precision="FP32">
					<dim>1</dim>
					<dim>128</dim>
					<dim>28</dim>
					<dim>28</dim>
				</port>
				<port id="1" precision="FP32">
					<dim>128</dim>
					<dim>1</dim>
					<dim>1</dim>
				</port>
			</input>
			<output>
				<port id="2" precision="FP32">
					<dim>1</dim>
					<dim>128</dim>
					<dim>28</dim>
					<dim>28</dim>
				</port>
			</output>
		</layer>
		<layer id="316" name="Reshape_3337" type="Const" version="opset1">
			<data element_type="f32" shape="1, 1, 1" offset="761216" size="4"/>
			<output>
				<port id="0" precision="FP32">
					<dim>1</dim>
					<dim>1</dim>
					<dim>1</dim>
				</port>
			</output>
		</layer>
		<layer id="317" name="Multiply_3340" type="Multiply" version="opset1">
			<data auto_broadcast="numpy"/>
			<rt_info>
				<attribute name="fused_names" version="0" value="842, 843, 845, 846, 847, 848, 849, 850, 852, 853, 854, 855, 856"/>
			</rt_info>
			<input>
				<port id="0" precision="FP32">
					<dim>1</dim>
					<dim>128</dim>
					<dim>28</dim>
…
		<edge from-layer="430" from-port="2" to-layer="432" to-port="0"/>
		<edge from-layer="431" from-port="0" to-layer="432" to-port="1"/>
		<edge from-layer="432" from-port="2" to-layer="433" to-port="0"/>
		<edge from-layer="433" from-port="1" to-layer="437" to-port="0"/>
		<edge from-layer="434" from-port="0" to-layer="437" to-port="1"/>
		<edge from-layer="434" from-port="0" to-layer="437" to-port="2"/>
		<edge from-layer="435" from-port="0" to-layer="437" to-port="3"/>
		<edge from-layer="436" from-port="0" to-layer="437" to-port="4"/>
		<edge from-layer="437" from-port="5" to-layer="439" to-port="0"/>
		<edge from-layer="438" from-port="0" to-layer="439" to-port="1"/>
		<edge from-layer="439" from-port="2" to-layer="441" to-port="0"/>
		<edge from-layer="440" from-port="0" to-layer="441" to-port="1"/>
		<edge from-layer="441" from-port="2" to-layer="443" to-port="0"/>
		<edge from-layer="442" from-port="0" to-layer="443" to-port="1"/>
		<edge from-layer="443" from-port="2" to-layer="445" to-port="0"/>
		<edge from-layer="444" from-port="0" to-layer="445" to-port="1"/>
		<edge from-layer="445" from-port="2" to-layer="447" to-port="0"/>
		<edge from-layer="446" from-port="0" to-layer="447" to-port="1"/>
		<edge from-layer="447" from-port="2" to-layer="449" to-port="0"/>
		<edge from-layer="448" from-port="0" to-layer="449" to-port="1"/>
		<edge from-layer="449" from-port="2" to-layer="451" to-port="0"/>
		<edge from-layer="450" from-port="0" to-layer="451" to-port="1"/>
		<edge from-layer="451" from-port="2" to-layer="453" to-port="0"/>
		<edge from-layer="452" from-port="0" to-layer="453" to-port="1"/>
		<edge from-layer="453" from-port="2" to-layer="454" to-port="0"/>
		<edge from-layer="454" from-port="1" to-layer="458" to-port="0"/>
		<edge from-layer="455" from-port="0" to-layer="458" to-port="1"/>
		<edge from-layer="455" from-port="0" to-layer="458" to-port="2"/>
		<edge from-layer="456" from-port="0" to-layer="458" to-port="3"/>
		<edge from-layer="457" from-port="0" to-layer="458" to-port="4"/>
		<edge from-layer="458" from-port="5" to-layer="460" to-port="0"/>
		<edge from-layer="459" from-port="0" to-layer="460" to-port="1"/>
		<edge from-layer="460" from-port="2" to-layer="462" to-port="0"/>
		<edge from-layer="461" from-port="0" to-layer="462" to-port="1"/>
		<edge from-layer="462" from-port="2" to-layer="464" to-port="0"/>
		<edge from-layer="463" from-port="0" to-layer="464" to-port="1"/>
		<edge from-layer="464" from-port="2" to-layer="466" to-port="0"/>
		<edge from-layer="465" from-port="0" to-layer="466" to-port="1"/>
		<edge from-layer="466" from-port="2" to-layer="468" to-port="0"/>
		<edge from-layer="467" from-port="0" to-layer="468" to-port="1"/>
		<edge from-layer="468" from-port="2" to-layer="470" to-port="0"/>
		<edge from-layer="469" from-port="0" to-layer="470" to-port="1"/>
		<edge from-layer="470" from-port="2" to-layer="472" to-port="0"/>
		<edge from-layer="471" from-port="0" to-layer="472" to-port="1"/>
		<edge from-layer="472" from-port="2" to-layer="474" to-port="0"/>
		<edge from-layer="473" from-port="0" to-layer="474" to-port="1"/>
		<edge from-layer="474" from-port="2" to-layer="475" to-port="0"/>
		<edge from-layer="475" from-port="2" to-layer="476" to-port="0"/>
		<edge from-layer="476" from-port="1" to-layer="480" to-port="0"/>
		<edge from-layer="476" from-port="1" to-layer="540" to-port="0"/>
		<edge from-layer="477" from-port="0" to-layer="480" to-port="2"/>
		<edge from-layer="477" from-port="0" to-layer="480" to-port="1"/>
		<edge from-layer="478" from-port="0" to-layer="480" to-port="3"/>
		<edge from-layer="479" from-port="0" to-layer="480" to-port="4"/>
		<edge from-layer="480" from-port="5" to-layer="482" to-port="0"/>
		<edge from-layer="481" from-port="0" to-layer="482" to-port="1"/>
		<edge from-layer="482" from-port="2" to-layer="484" to-port="0"/>
		<edge from-layer="483" from-port="0" to-layer="484" to-port="1"/>
		<edge from-layer="484" from-port="2" to-layer="486" to-port="0"/>
		<edge from-layer="485" from-port="0" to-layer="486" to-port="1"/>
		<edge from-layer="486" from-port="2" to-layer="488" to-port="0"/>
		<edge from-layer="487" from-port="0" to-layer="488" to-port="1"/>
		<edge from-layer="488" from-port="2" to-layer="490" to-port="0"/>
		<edge from-layer="489" from-port="0" to-layer="490" to-port="1"/>
		<edge from-layer="490" from-port="2" to-layer="492" to-port="0"/>
		<edge from-layer="491" from-port="0" to-layer="492" to-port="1"/>
		<edge from-layer="492" from-port="2" to-layer="494" to-port="0"/>
		<edge from-layer="493" from-port="0" to-layer="494" to-port="1"/>
		<edge from-layer="494" from-port="2" to-layer="496" to-port="0"/>
		<edge from-layer="495" from-port="0" to-layer="496" to-port="1"/>
		<edge from-layer="496" from-port="2" to-layer="497" to-port="0"/>
		<edge from-layer="497" from-port="1" to-layer="501" to-port="0"/>
		<edge from-layer="498" from-port="0" to-layer="501" to-port="1"/>
		<edge from-layer="498" from-port="0" to-layer="501" to-port="2"/>
		<edge from-layer="499" from-port="0" to-layer="501" to-port="3"/>
		<edge from-layer="500" from-port="0" to-layer="501" to-port="4"/>
		<edge from-layer="501" from-port="5" to-layer="503" to-port="0"/>
		<edge from-layer="502" from-port="0" to-layer="503" to-port="1"/>
		<edge from-layer="503" from-port="2" to-layer="505" to-port="0"/>
		<edge from-layer="504" from-port="0" to-layer="505" to-port="1"/>
		<edge from-layer="505" from-port="2" to-layer="507" to-port="0"/>
		<edge from-layer="506" from-port="0" to-layer="507" to-port="1"/>
		<edge from-layer="507" from-port="2" to-layer="509" to-port="0"/>
		<edge from-layer="508" from-port="0" to-layer="509" to-port="1"/>
		<edge from-layer="509" from-port="2" to-layer="511" to-port="0"/>
		<edge from-layer="510" from-port="0" to-layer="511" to-port="1"/>
		<edge from-layer="511" from-port="2" to-layer="513" to-port="0"/>
		<edge from-layer="512" from-port="0" to-layer="513" to-port="1"/>
		<edge from-layer="513" from-port="2" to-layer="515" to-port="0"/>
		<edge from-layer="514" from-port="0" to-layer="515" to-port="1"/>
		<edge from-layer="515" from-port="2" to-layer="517" to-port="0"/>
		<edge from-layer="516" from-port="0" to-layer="517" to-port="1"/>
		<edge from-layer="517" from-port="2" to-layer="518" to-port="0"/>
		<edge from-layer="518" from-port="1" to-layer="522" to-port="0"/>
		<edge from-layer="519" from-port="0" to-layer="522" to-port="1"/>
		<edge from-layer="519" from-port="0" to-layer="522" to-port="2"/>
		<edge from-layer="520" from-port="0" to-layer="522" to-port="3"/>
		<edge from-layer="521" from-port="0" to-layer="522" to-port="4"/>
		<edge from-layer="522" from-port="5" to-layer="524" to-port="0"/>
		<edge from-layer="523" from-port="0" to-layer="524" to-port="1"/>
		<edge from-layer="524" from-port="2" to-layer="526" to-port="0"/>
		<edge from-layer="525" from-port="0" to-layer="526" to-port="1"/>
		<edge from-layer="526" from-port="2" to-layer="528" to-port="0"/>
		<edge from-layer="527" from-port="0" to-layer="528" to-port="1"/>
		<edge from-layer="528" from-port="2" to-layer="530" to-port="0"/>
		<edge from-layer="529" from-port="0" to-layer="530" to-port="1"/>
		<edge from-layer="530" from-port="2" to-layer="532" to-port="0"/>
		<edge from-layer="531" from-port="0" to-layer="532" to-port="1"/>
		<edge from-layer="532" from-port="2" to-layer="534" to-port="0"/>
		<edge from-layer="533" from-port="0" to-layer="534" to-port="1"/>
		<edge from-layer="534" from-port="2" to-layer="536" to-port="0"/>
		<edge from-layer="535" from-port="0" to-layer="536" to-port="1"/>
		<edge from-layer="536" from-port="2" to-layer="538" to-port="0"/>
		<edge from-layer="537" from-port="0" to-layer="538" to-port="1"/>
		<edge from-layer="538" from-port="2" to-layer="547" to-port="0"/>
		<edge from-layer="539" from-port="0" to-layer="540" to-port="1"/>
		<edge from-layer="540" from-port="2" to-layer="542" to-port="0"/>
		<edge from-layer="541" from-port="0" to-layer="542" to-port="1"/>
		<edge from-layer="542" from-port="2" to-layer="544" to-port="0"/>
		<edge from-layer="543" from-port="0" to-layer="544" to-port="1"/>
		<edge from-layer="544" from-port="2" to-layer="546" to-port="0"/>
		<edge from-layer="545" from-port="0" to-layer="546" to-port="1"/>
		<edge from-layer="546" from-port="2" to-layer="547" to-port="1"/>
		<edge from-layer="547" from-port="2" to-layer="548" to-port="0"/>
		<edge from-layer="548" from-port="1" to-layer="611" to-port="1"/>
		<edge from-layer="548" from-port="1" to-layer="552" to-port="0"/>
		<edge from-layer="549" from-port="0" to-layer="552" to-port="2"/>
		<edge from-layer="549" from-port="0" to-layer="552" to-port="1"/>
		<edge from-layer="550" from-port="0" to-layer="552" to-port="3"/>
		<edge from-layer="551" from-port="0" to-layer="552" to-port="4"/>
		<edge from-layer="552" from-port="5" to-layer="554" to-port="0"/>
		<edge from-layer="553" from-port="0" to-layer="554" to-port="1"/>
		<edge from-layer="554" from-port="2" to-layer="556" to-port="0"/>
		<edge from-layer="555" from-port="0" to-layer="556" to-port="1"/>
		<edge from-layer="556" from-port="2" to-layer="558" to-port="0"/>
		<edge from-layer="557" from-port="0" to-layer="558" to-port="1"/>
		<edge from-layer="558" from-port="2" to-layer="560" to-port="0"/>
		<edge from-layer="559" from-port="0" to-layer="560" to-port="1"/>
		<edge from-layer="560" from-port="2" to-layer="562" to-port="0"/>
		<edge from-layer="561" from-port="0" to-layer="562" to-port="1"/>
		<edge from-layer="562" from-port="2" to-layer="564" to-port="0"/>
		<edge from-layer="563" from-port="0" to-layer="564" to-port="1"/>
		<edge from-layer="564" from-port="2" to-layer="566" to-port="0"/>
		<edge from-layer="565" from-port="0" to-layer="566" to-port="1"/>
		<edge from-layer="566" from-port="2" to-layer="568" to-port="0"/>
		<edge from-layer="567" from-port="0" to-layer="568" to-port="1"/>
		<edge from-layer="568" from-port="2" to-layer="569" to-port="0"/>
		<edge from-layer="569" from-port="1" to-layer="573" to-port="0"/>
		<edge from-layer="570" from-port="0" to-layer="573" to-port="1"/>
		<edge from-layer="570" from-port="0" to-layer="573" to-port="2"/>
		<edge from-layer="571" from-port="0" to-layer="573" to-port="3"/>
		<edge from-layer="572" from-port="0" to-layer="573" to-port="4"/>
		<edge from-layer="573" from-port="5" to-layer="575" to-port="0"/>
		<edge from-layer="574" from-port="0" to-layer="575" to-port="1"/>
		<edge from-layer="575" from-port="2" to-layer="577" to-port="0"/>
		<edge from-layer="576" from-port="0" to-layer="577" to-port="1"/>
		<edge from-layer="577" from-port="2" to-layer="579" to-port="0"/>
		<edge from-layer="578" from-port="0" to-layer="579" to-port="1"/>
		<edge from-layer="579" from-port="2" to-layer="581" to-port="0"/>
		<edge from-layer="580" from-port="0" to-layer="581" to-port="1"/>
		<edge from-layer="581" from-port="2" to-layer="583" to-port="0"/>
		<edge from-layer="582" from-port="0" to-layer="583" to-port="1"/>
		<edge from-layer="583" from-port="2" to-layer="585" to-port="0"/>
		<edge from-layer="584" from-port="0" to-layer="585" to-port="1"/>
		<edge from-layer="585" from-port="2" to-layer="587" to-port="0"/>
		<edge from-layer="586" from-port="0" to-layer="587" to-port="1"/>
		<edge from-layer="587" from-port="2" to-layer="589" to-port="0"/>
		<edge from-layer="588" from-port="0" to-layer="589" to-port="1"/>
		<edge from-layer="589" from-port="2" to-layer="590" to-port="0"/>
		<edge from-layer="590" from-port="1" to-layer="594" to-port="0"/>
		<edge from-layer="591" from-port="0" to-layer="594" to-port="1"/>
		<edge from-layer="591" from-port="0" to-layer="594" to-port="2"/>
		<edge from-layer="592" from-port="0" to-layer="594" to-port="3"/>
		<edge from-layer="593" from-port="0" to-layer="594" to-port="4"/>
		<edge from-layer="594" from-port="5" to-layer="596" to-port="0"/>
		<edge from-layer="595" from-port="0" to-layer="596" to-port="1"/>
		<edge from-layer="596" from-port="2" to-layer="598" to-port="0"/>
		<edge from-layer="597" from-port="0" to-layer="598" to-port="1"/>
		<edge from-layer="598" from-port="2" to-layer="600" to-port="0"/>
		<edge from-layer="599" from-port="0" to-layer="600" to-port="1"/>
		<edge from-layer="600" from-port="2" to-layer="602" to-port="0"/>
		<edge from-layer="601" from-port="0" to-layer="602" to-port="1"/>
		<edge from-layer="602" from-port="2" to-layer="604" to-port="0"/>
		<edge from-layer="603" from-port="0" to-layer="604" to-port="1"/>
		<edge from-layer="604" from-port="2" to-layer="606" to-port="0"/>
		<edge from-layer="605" from-port="0" to-layer="606" to-port="1"/>
		<edge from-layer="606" from-port="2" to-layer="608" to-port="0"/>
		<edge from-layer="607" from-port="0" to-layer="608" to-port="1"/>
		<edge from-layer="608" from-port="2" to-layer="610" to-port="0"/>
		<edge from-layer="609" from-port="0" to-layer="610" to-port="1"/>
		<edge from-layer="610" from-port="2" to-layer="611" to-port="0"/>
		<edge from-layer="611" from-port="2" to-layer="612" to-port="0"/>
		<edge from-layer="612" from-port="1" to-layer="616" to-port="0"/>
		<edge from-layer="612" from-port="1" to-layer="675" to-port="1"/>
		<edge from-layer="613" from-port="0" to-layer="616" to-port="2"/>
		<edge from-layer="613" from-port="0" to-layer="616" to-port="1"/>
		<edge from-layer="614" from-port="0" to-layer="616" to-port="3"/>
		<edge from-layer="615" from-port="0" to-layer="616" to-port="4"/>
		<edge from-layer="616" from-port="5" to-layer="618" to-port="0"/>
		<edge from-layer="617" from-port="0" to-layer="618" to-port="1"/>
		<edge from-layer="618" from-port="2" to-layer="620" to-port="0"/>
		<edge from-layer="619" from-port="0" to-layer="620" to-port="1"/>
		<edge from-layer="620" from-port="2" to-layer="622" to-port="0"/>
		<edge from-layer="621" from-port="0" to-layer="622" to-port="1"/>
		<edge from-layer="622" from-port="2" to-layer="624" to-port="0"/>
		<edge from-layer="623" from-port="0" to-layer="624" to-port="1"/>
		<edge from-layer="624" from-port="2" to-layer="626" to-port="0"/>
		<edge from-layer="625" from-port="0" to-layer="626" to-port="1"/>
		<edge from-layer="626" from-port="2" to-layer="628" to-port="0"/>
		<edge from-layer="627" from-port="0" to-layer="628" to-port="1"/>
		<edge from-layer="628" from-port="2" to-layer="630" to-port="0"/>
		<edge from-layer="629" from-port="0" to-layer="630" to-port="1"/>
		<edge from-layer="630" from-port="2" to-layer="632" to-port="0"/>
		<edge from-layer="631" from-port="0" to-layer="632" to-port="1"/>
		<edge from-layer="632" from-port="2" to-layer="633" to-port="0"/>
		<edge from-layer="633" from-port="1" to-layer="637" to-port="0"/>
		<edge from-layer="634" from-port="0" to-layer="637" to-port="1"/>
		<edge from-layer="634" from-port="0" to-layer="637" to-port="2"/>
		<edge from-layer="635" from-port="0" to-layer="637" to-port="3"/>
		<edge from-layer="636" from-port="0" to-layer="637" to-port="4"/>
		<edge from-layer="637" from-port="5" to-layer="639" to-port="0"/>
		<edge from-layer="638" from-port="0" to-layer="639" to-port="1"/>
		<edge from-layer="639" from-port="2" to-layer="641" to-port="0"/>
		<edge from-layer="640" from-port="0" to-layer="641" to-port="1"/>
		<edge from-layer="641" from-port="2" to-layer="643" to-port="0"/>
		<edge from-layer="642" from-port="0" to-layer="643" to-port="1"/>
		<edge from-layer="643" from-port="2" to-layer="645" to-port="0"/>
		<edge from-layer="644" from-port="0" to-layer="645" to-port="1"/>
		<edge from-layer="645" from-port="2" to-layer="647" to-port="0"/>
		<edge from-layer="646" from-port="0" to-layer="647" to-port="1"/>
		<edge from-layer="647" from-port="2" to-layer="649" to-port="0"/>
		<edge from-layer="648" from-port="0" to-layer="649" to-port="1"/>
		<edge from-layer="649" from-port="2" to-layer="651" to-port="0"/>
		<edge from-layer="650" from-port="0" to-layer="651" to-port="1"/>
		<edge from-layer="651" from-port="2" to-layer="653" to-port="0"/>
		<edge from-layer="652" from-port="0" to-layer="653" to-port="1"/>
		<edge from-layer="653" from-port="2" to-layer="654" to-port="0"/>
		<edge from-layer="654" from-port="1" to-layer="658" to-port="0"/>
		<edge from-layer="655" from-port="0" to-layer="658" to-port="1"/>
		<edge from-layer="655" from-port="0" to-layer="658" to-port="2"/>
		<edge from-layer="656" from-port="0" to-layer="658" to-port="3"/>
		<edge from-layer="657" from-port="0" to-layer="658" to-port="4"/>
		<edge from-layer="658" from-port="5" to-layer="660" to-port="0"/>
		<edge from-layer="659" from-port="0" to-layer="660" to-port="1"/>
		<edge from-layer="660" from-port="2" to-layer="662" to-port="0"/>
		<edge from-layer="661" from-port="0" to-layer="662" to-port="1"/>
		<edge from-layer="662" from-port="2" to-layer="664" to-port="0"/>
		<edge from-layer="663" from-port="0" to-layer="664" to-port="1"/>
		<edge from-layer="664" from-port="2" to-layer="666" to-port="0"/>
		<edge from-layer="665" from-port="0" to-layer="666" to-port="1"/>
		<edge from-layer="666" from-port="2" to-layer="668" to-port="0"/>
		<edge from-layer="667" from-port="0" to-layer="668" to-port="1"/>
		<edge from-layer="668" from-port="2" to-layer="670" to-port="0"/>
		<edge from-layer="669" from-port="0" to-layer="670" to-port="1"/>
		<edge from-layer="670" from-port="2" to-layer="672" to-port="0"/>
		<edge from-layer="671" from-port="0" to-layer="672" to-port="1"/>
		<edge from-layer="672" from-port="2" to-layer="674" to-port="0"/>
		<edge from-layer="673" from-port="0" to-layer="674" to-port="1"/>
		<edge from-layer="674" from-port="2" to-layer="675" to-port="0"/>
		<edge from-layer="675" from-port="2" to-layer="676" to-port="0"/>
		<edge from-layer="676" from-port="1" to-layer="680" to-port="0"/>
		<edge from-layer="676" from-port="1" to-layer="739" to-port="1"/>
		<edge from-layer="677" from-port="0" to-layer="680" to-port="1"/>
		<edge from-layer="677" from-port="0" to-layer="680" to-port="2"/>
		<edge from-layer="678" from-port="0" to-layer="680" to-port="3"/>
		<edge from-layer="679" from-port="0" to-layer="680" to-port="4"/>
		<edge from-layer="680" from-port="5" to-layer="682" to-port="0"/>
		<edge from-layer="681" from-port="0" to-layer="682" to-port="1"/>
		<edge from-layer="682" from-port="2" to-layer="684" to-port="0"/>
		<edge from-layer="683" from-port="0" to-layer="684" to-port="1"/>
		<edge from-layer="684" from-port="2" to-layer="686" to-port="0"/>
		<edge from-layer="685" from-port="0" to-layer="686" to-port="1"/>
		<edge from-layer="686" from-port="2" to-layer="688" to-port="0"/>
		<edge from-layer="687" from-port="0" to-layer="688" to-port="1"/>
		<edge from-layer="688" from-port="2" to-layer="690" to-port="0"/>
		<edge from-layer="689" from-port="0" to-layer="690" to-port="1"/>
		<edge from-layer="690" from-port="2" to-layer="692" to-port="0"/>
		<edge from-layer="691" from-port="0" to-layer="692" to-port="1"/>
		<edge from-layer="692" from-port="2" to-layer="694" to-port="0"/>
		<edge from-layer="693" from-port="0" to-layer="694" to-port="1"/>
		<edge from-layer="694" from-port="2" to-layer="696" to-port="0"/>
		<edge from-layer="695" from-port="0" to-layer="696" to-port="1"/>
		<edge from-layer="696" from-port="2" to-layer="697" to-port="0"/>
		<edge from-layer="697" from-port="1" to-layer="701" to-port="0"/>
		<edge from-layer="698" from-port="0" to-layer="701" to-port="1"/>
		<edge from-layer="698" from-port="0" to-layer="701" to-port="2"/>
		<edge from-layer="699" from-port="0" to-layer="701" to-port="3"/>
		<edge from-layer="700" from-port="0" to-layer="701" to-port="4"/>
		<edge from-layer="701" from-port="5" to-layer="703" to-port="0"/>
		<edge from-layer="702" from-port="0" to-layer="703" to-port="1"/>
		<edge from-layer="703" from-port="2" to-layer="705" to-port="0"/>
		<edge from-layer="704" from-port="0" to-layer="705" to-port="1"/>
		<edge from-layer="705" from-port="2" to-layer="707" to-port="0"/>
		<edge from-layer="706" from-port="0" to-layer="707" to-port="1"/>
		<edge from-layer="707" from-port="2" to-layer="709" to-port="0"/>
		<edge from-layer="708" from-port="0" to-layer="709" to-port="1"/>
		<edge from-layer="709" from-port="2" to-layer="711" to-port="0"/>
		<edge from-layer="710" from-port="0" to-layer="711" to-port="1"/>
		<edge from-layer="711" from-port="2" to-layer="713" to-port="0"/>
		<edge from-layer="712" from-port="0" to-layer="713" to-port="1"/>
		<edge from-layer="713" from-port="2" to-layer="715" to-port="0"/>
		<edge from-layer="714" from-port="0" to-layer="715" to-port="1"/>
		<edge from-layer="715" from-port="2" to-layer="717" to-port="0"/>
		<edge from-layer="716" from-port="0" to-layer="717" to-port="1"/>
		<edge from-layer="717" from-port="2" to-layer="718" to-port="0"/>
		<edge from-layer="718" from-port="1" to-layer="722" to-port="0"/>
		<edge from-layer="719" from-port="0" to-layer="722" to-port="2"/>
		<edge from-layer="719" from-port="0" to-layer="722" to-port="1"/>
		<edge from-layer="720" from-port="0" to-layer="722" to-port="3"/>
		<edge from-layer="721" from-port="0" to-layer="722" to-port="4"/>
		<edge from-layer="722" from-port="5" to-layer="724" to-port="0"/>
		<edge from-layer="723" from-port="0" to-layer="724" to-port="1"/>
		<edge from-layer="724" from-port="2" to-layer="726" to-port="0"/>
		<edge from-layer="725" from-port="0" to-layer="726" to-port="1"/>
		<edge from-layer="726" from-port="2" to-layer="728" to-port="0"/>
		<edge from-layer="727" from-port="0" to-layer="728" to-port="1"/>
		<edge from-layer="728" from-port="2" to-layer="730" to-port="0"/>
		<edge from-layer="729" from-port="0" to-layer="730" to-port="1"/>
		<edge from-layer="730" from-port="2" to-layer="732" to-port="0"/>
		<edge from-layer="731" from-port="0" to-layer="732" to-port="1"/>
		<edge from-layer="732" from-port="2" to-layer="734" to-port="0"/>
		<edge from-layer="733" from-port="0" to-layer="734" to-port="1"/>
		<edge from-layer="734" from-port="2" to-layer="736" to-port="0"/>
		<edge from-layer="735" from-port="0" to-layer="736" to-port="1"/>
		<edge from-layer="736" from-port="2" to-layer="738" to-port="0"/>
		<edge from-layer="737" from-port="0" to-layer="738" to-port="1"/>
		<edge from-layer="738" from-port="2" to-layer="739" to-port="0"/>
		<edge from-layer="739" from-port="2" to-layer="740" to-port="0"/>
		<edge from-layer="740" from-port="1" to-layer="744" to-port="0"/>
		<edge from-layer="740" from-port="1" to-layer="803" to-port="1"/>
		<edge from-layer="741" from-port="0" to-layer="744" to-port="1"/>
		<edge from-layer="741" from-port="0" to-layer="744" to-port="2"/>
		<edge from-layer="742" from-port="0" to-layer="744" to-port="3"/>
		<edge from-layer="743" from-port="0" to-layer="744" to-port="4"/>
		<edge from-layer="744" from-port="5" to-layer="746" to-port="0"/>
		<edge from-layer="745" from-port="0" to-layer="746" to-port="1"/>
		<edge from-layer="746" from-port="2" to-layer="748" to-port="0"/>
		<edge from-layer="747" from-port="0" to-layer="748" to-port="1"/>
		<edge from-layer="748" from-port="2" to-layer="750" to-port="0"/>
		<edge from-layer="749" from-port="0" to-layer="750" to-port="1"/>
		<edge from-layer="750" from-port="2" to-layer="752" to-port="0"/>
		<edge from-layer="751" from-port="0" to-layer="752" to-port="1"/>
		<edge from-layer="752" from-port="2" to-layer="754" to-port="0"/>
		<edge from-layer="753" from-port="0" to-layer="754" to-port="1"/>
		<edge from-layer="754" from-port="2" to-layer="756" to-port="0"/>
		<edge from-layer="755" from-port="0" to-layer="756" to-port="1"/>
		<edge from-layer="756" from-port="2" to-layer="758" to-port="0"/>
		<edge from-layer="757" from-port="0" to-layer="758" to-port="1"/>
		<edge from-layer="758" from-port="2" to-layer="760" to-port="0"/>
		<edge from-layer="759" from-port="0" to-layer="760" to-port="1"/>
		<edge from-layer="760" from-port="2" to-layer="761" to-port="0"/>
		<edge from-layer="761" from-port="1" to-layer="765" to-port="0"/>
		<edge from-layer="762" from-port="0" to-layer="765" to-port="1"/>
		<edge from-layer="762" from-port="0" to-layer="765" to-port="2"/>
		<edge from-layer="763" from-port="0" to-layer="765" to-port="3"/>
		<edge from-layer="764" from-port="0" to-layer="765" to-port="4"/>
		<edge from-layer="765" from-port="5" to-layer="767" to-port="0"/>
		<edge from-layer="766" from-port="0" to-layer="767" to-port="1"/>
		<edge from-layer="767" from-port="2" to-layer="769" to-port="0"/>
		<edge from-layer="768" from-port="0" to-layer="769" to-port="1"/>
		<edge from-layer="769" from-port="2" to-layer="771" to-port="0"/>
		<edge from-layer="770" from-port="0" to-layer="771" to-port="1"/>
		<edge from-layer="771" from-port="2" to-layer="773" to-port="0"/>
		<edge from-layer="772" from-port="0" to-layer="773" to-port="1"/>
		<edge from-layer="773" from-port="2" to-layer="775" to-port="0"/>
		<edge from-layer="774" from-port="0" to-layer="775" to-port="1"/>
		<edge from-layer="775" from-port="2" to-layer="777" to-port="0"/>
		<edge from-layer="776" from-port="0" to-layer="777" to-port="1"/>
		<edge from-layer="777" from-port="2" to-layer="779" to-port="0"/>
		<edge from-layer="778" from-port="0" to-layer="779" to-port="1"/>
		<edge from-layer="779" from-port="2" to-layer="781" to-port="0"/>
		<edge from-layer="780" from-port="0" to-layer="781" to-port="1"/>
		<edge from-layer="781" from-port="2" to-layer="782" to-port="0"/>
		<edge from-layer="782" from-port="1" to-layer="786" to-port="0"/>
		<edge from-layer="783" from-port="0" to-layer="786" to-port="1"/>
		<edge from-layer="783" from-port="0" to-layer="786" to-port="2"/>
		<edge from-layer="784" from-port="0" to-layer="786" to-port="3"/>
		<edge from-layer="785" from-port="0" to-layer="786" to-port="4"/>
		<edge from-layer="786" from-port="5" to-layer="788" to-port="0"/>
		<edge from-layer="787" from-port="0" to-layer="788" to-port="1"/>
		<edge from-layer="788" from-port="2" to-layer="790" to-port="0"/>
		<edge from-layer="789" from-port="0" to-layer="790" to-port="1"/>
		<edge from-layer="790" from-port="2" to-layer="792" to-port="0"/>
		<edge from-layer="791" from-port="0" to-layer="792" to-port="1"/>
		<edge from-layer="792" from-port="2" to-layer="794" to-port="0"/>
		<edge from-layer="793" from-port="0" to-layer="794" to-port="1"/>
		<edge from-layer="794" from-port="2" to-layer="796" to-port="0"/>
		<edge from-layer="795" from-port="0" to-layer="796" to-port="1"/>
		<edge from-layer="796" from-port="2" to-layer="798" to-port="0"/>
		<edge from-layer="797" from-port="0" to-layer="798" to-port="1"/>
		<edge from-layer="798" from-port="2" to-layer="800" to-port="0"/>
		<edge from-layer="799" from-port="0" to-layer="800" to-port="1"/>
		<edge from-layer="800" from-port="2" to-layer="802" to-port="0"/>
		<edge from-layer="801" from-port="0" to-layer="802" to-port="1"/>
		<edge from-layer="802" from-port="2" to-layer="803" to-port="0"/>
		<edge from-layer="803" from-port="2" to-layer="804" to-port="0"/>
		<edge from-layer="804" from-port="1" to-layer="808" to-port="0"/>
		<edge from-layer="804" from-port="1" to-layer="867" to-port="1"/>
		<edge from-layer="805" from-port="0" to-layer="808" to-port="1"/>
		<edge from-layer="805" from-port="0" to-layer="808" to-port="2"/>
		<edge from-layer="806" from-port="0" to-layer="808" to-port="3"/>
		<edge from-layer="807" from-port="0" to-layer="808" to-port="4"/>
		<edge from-layer="808" from-port="5" to-layer="810" to-port="0"/>
		<edge from-layer="809" from-port="0" to-layer="810" to-port="1"/>
		<edge from-layer="810" from-port="2" to-layer="812" to-port="0"/>
		<edge from-layer="811" from-port="0" to-layer="812" to-port="1"/>
		<edge from-layer="812" from-port="2" to-layer="814" to-port="0"/>
		<edge from-layer="813" from-port="0" to-layer="814" to-port="1"/>
		<edge from-layer="814" from-port="2" to-layer="816" to-port="0"/>
		<edge from-layer="815" from-port="0" to-layer="816" to-port="1"/>
		<edge from-layer="816" from-port="2" to-layer="818" to-port="0"/>
		<edge from-layer="817" from-port="0" to-layer="818" to-port="1"/>
		<edge from-layer="818" from-port="2" to-layer="820" to-port="0"/>
		<edge from-layer="819" from-port="0" to-layer="820" to-port="1"/>
		<edge from-layer="820" from-port="2" to-layer="822" to-port="0"/>
		<edge from-layer="821" from-port="0" to-layer="822" to-port="1"/>
		<edge from-layer="822" from-port="2" to-layer="824" to-port="0"/>
		<edge from-layer="823" from-port="0" to-layer="824" to-port="1"/>
		<edge from-layer="824" from-port="2" to-layer="825" to-port="0"/>
		<edge from-layer="825" from-port="1" to-layer="829" to-port="0"/>
		<edge from-layer="826" from-port="0" to-layer="829" to-port="1"/>
		<edge from-layer="826" from-port="0" to-layer="829" to-port="2"/>
		<edge from-layer="827" from-port="0" to-layer="829" to-port="3"/>
		<edge from-layer="828" from-port="0" to-layer="829" to-port="4"/>
		<edge from-layer="829" from-port="5" to-layer="831" to-port="0"/>
		<edge from-layer="830" from-port="0" to-layer="831" to-port="1"/>
		<edge from-layer="831" from-port="2" to-layer="833" to-port="0"/>
		<edge from-layer="832" from-port="0" to-layer="833" to-port="1"/>
		<edge from-layer="833" from-port="2" to-layer="835" to-port="0"/>
		<edge from-layer="834" from-port="0" to-layer="835" to-port="1"/>
		<edge from-layer="835" from-port="2" to-layer="837" to-port="0"/>
		<edge from-layer="836" from-port="0" to-layer="837" to-port="1"/>
		<edge from-layer="837" from-port="2" to-layer="839" to-port="0"/>
		<edge from-layer="838" from-port="0" to-layer="839" to-port="1"/>
		<edge from-layer="839" from-port="2" to-layer="841" to-port="0"/>
		<edge from-layer="840" from-port="0" to-layer="841" to-port="1"/>
		<edge from-layer="841" from-port="2" to-layer="843" to-port="0"/>
		<edge from-layer="842" from-port="0" to-layer="843" to-port="1"/>
		<edge from-layer="843" from-port="2" to-layer="845" to-port="0"/>
		<edge from-layer="844" from-port="0" to-layer="845" to-port="1"/>
		<edge from-layer="845" from-port="2" to-layer="846" to-port="0"/>
		<edge from-layer="846" from-port="1" to-layer="850" to-port="0"/>
		<edge from-layer="847" from-port="0" to-layer="850" to-port="1"/>
		<edge from-layer="847" from-port="0" to-layer="850" to-port="2"/>
		<edge from-layer="848" from-port="0" to-layer="850" to-port="3"/>
		<edge from-layer="849" from-port="0" to-layer="850" to-port="4"/>
		<edge from-layer="850" from-port="5" to-layer="852" to-port="0"/>
		<edge from-layer="851" from-port="0" to-layer="852" to-port="1"/>
		<edge from-layer="852" from-port="2" to-layer="854" to-port="0"/>
		<edge from-layer="853" from-port="0" to-layer="854" to-port="1"/>
		<edge from-layer="854" from-port="2" to-layer="856" to-port="0"/>
		<edge from-layer="855" from-port="0" to-layer="856" to-port="1"/>
		<edge from-layer="856" from-port="2" to-layer="858" to-port="0"/>
		<edge from-layer="857" from-port="0" to-layer="858" to-port="1"/>
		<edge from-layer="858" from-port="2" to-layer="860" to-port="0"/>
		<edge from-layer="859" from-port="0" to-layer="860" to-port="1"/>
		<edge from-layer="860" from-port="2" to-layer="862" to-port="0"/>
		<edge from-layer="861" from-port="0" to-layer="862" to-port="1"/>
		<edge from-layer="862" from-port="2" to-layer="864" to-port="0"/>
		<edge from-layer="863" from-port="0" to-layer="864" to-port="1"/>
		<edge from-layer="864" from-port="2" to-layer="866" to-port="0"/>
		<edge from-layer="865" from-port="0" to-layer="866" to-port="1"/>
		<edge from-layer="866" from-port="2" to-layer="867" to-port="0"/>
		<edge from-layer="867" from-port="2" to-layer="868" to-port="0"/>
		<edge from-layer="868" from-port="1" to-layer="932" to-port="0"/>
		<edge from-layer="868" from-port="1" to-layer="872" to-port="0"/>
		<edge from-layer="869" from-port="0" to-layer="872" to-port="2"/>
		<edge from-layer="869" from-port="0" to-layer="872" to-port="1"/>
		<edge from-layer="870" from-port="0" to-layer="872" to-port="3"/>
		<edge from-layer="871" from-port="0" to-layer="872" to-port="4"/>
		<edge from-layer="872" from-port="5" to-layer="874" to-port="0"/>
		<edge from-layer="873" from-port="0" to-layer="874" to-port="1"/>
		<edge from-layer="874" from-port="2" to-layer="876" to-port="0"/>
		<edge from-layer="875" from-port="0" to-layer="876" to-port="1"/>
		<edge from-layer="876" from-port="2" to-layer="878" to-port="0"/>
		<edge from-layer="877" from-port="0" to-layer="878" to-port="1"/>
		<edge from-layer="878" from-port="2" to-layer="880" to-port="0"/>
		<edge from-layer="879" from-port="0" to-layer="880" to-port="1"/>
		<edge from-layer="880" from-port="2" to-layer="882" to-port="0"/>
		<edge from-layer="881" from-port="0" to-layer="882" to-port="1"/>
		<edge from-layer="882" from-port="2" to-layer="884" to-port="0"/>
		<edge from-layer="883" from-port="0" to-layer="884" to-port="1"/>
		<edge from-layer="884" from-port="2" to-layer="886" to-port="0"/>
		<edge from-layer="885" from-port="0" to-layer="886" to-port="1"/>
		<edge from-layer="886" from-port="2" to-layer="888" to-port="0"/>
		<edge from-layer="887" from-port="0" to-layer="888" to-port="1"/>
		<edge from-layer="888" from-port="2" to-layer="889" to-port="0"/>
		<edge from-layer="889" from-port="1" to-layer="893" to-port="0"/>
		<edge from-layer="890" from-port="0" to-layer="893" to-port="2"/>
		<edge from-layer="890" from-port="0" to-layer="893" to-port="1"/>
		<edge from-layer="891" from-port="0" to-layer="893" to-port="3"/>
		<edge from-layer="892" from-port="0" to-layer="893" to-port="4"/>
		<edge from-layer="893" from-port="5" to-layer="895" to-port="0"/>
		<edge from-layer="894" from-port="0" to-layer="895" to-port="1"/>
		<edge from-layer="895" from-port="2" to-layer="897" to-port="0"/>
		<edge from-layer="896" from-port="0" to-layer="897" to-port="1"/>
		<edge from-layer="897" from-port="2" to-layer="899" to-port="0"/>
		<edge from-layer="898" from-port="0" to-layer="899" to-port="1"/>
		<edge from-layer="899" from-port="2" to-layer="901" to-port="0"/>
		<edge from-layer="900" from-port="0" to-layer="901" to-port="1"/>
		<edge from-layer="901" from-port="2" to-layer="903" to-port="0"/>
		<edge from-layer="902" from-port="0" to-layer="903" to-port="1"/>
		<edge from-layer="903" from-port="2" to-layer="905" to-port="0"/>
		<edge from-layer="904" from-port="0" to-layer="905" to-port="1"/>
		<edge from-layer="905" from-port="2" to-layer="907" to-port="0"/>
		<edge from-layer="906" from-port="0" to-layer="907" to-port="1"/>
		<edge from-layer="907" from-port="2" to-layer="909" to-port="0"/>
		<edge from-layer="908" from-port="0" to-layer="909" to-port="1"/>
		<edge from-layer="909" from-port="2" to-layer="910" to-port="0"/>
		<edge from-layer="910" from-port="1" to-layer="914" to-port="0"/>
		<edge from-layer="911" from-port="0" to-layer="914" to-port="1"/>
		<edge from-layer="911" from-port="0" to-layer="914" to-port="2"/>
		<edge from-layer="912" from-port="0" to-layer="914" to-port="3"/>
		<edge from-layer="913" from-port="0" to-layer="914" to-port="4"/>
		<edge from-layer="914" from-port="5" to-layer="916" to-port="0"/>
		<edge from-layer="915" from-port="0" to-layer="916" to-port="1"/>
		<edge from-layer="916" from-port="2" to-layer="918" to-port="0"/>
		<edge from-layer="917" from-port="0" to-layer="918" to-port="1"/>
		<edge from-layer="918" from-port="2" to-layer="920" to-port="0"/>
		<edge from-layer="919" from-port="0" to-layer="920" to-port="1"/>
		<edge from-layer="920" from-port="2" to-layer="922" to-port="0"/>
		<edge from-layer="921" from-port="0" to-layer="922" to-port="1"/>
		<edge from-layer="922" from-port="2" to-layer="924" to-port="0"/>
		<edge from-layer="923" from-port="0" to-layer="924" to-port="1"/>
		<edge from-layer="924" from-port="2" to-layer="926" to-port="0"/>
		<edge from-layer="925" from-port="0" to-layer="926" to-port="1"/>
		<edge from-layer="926" from-port="2" to-layer="928" to-port="0"/>
		<edge from-layer="927" from-port="0" to-layer="928" to-port="1"/>
		<edge from-layer="928" from-port="2" to-layer="930" to-port="0"/>
		<edge from-layer="929" from-port="0" to-layer="930" to-port="1"/>
		<edge from-layer="930" from-port="2" to-layer="939" to-port="0"/>
		<edge from-layer="931" from-port="0" to-layer="932" to-port="1"/>
		<edge from-layer="932" from-port="2" to-layer="934" to-port="0"/>
		<edge from-layer="933" from-port="0" to-layer="934" to-port="1"/>
		<edge from-layer="934" from-port="2" to-layer="936" to-port="0"/>
		<edge from-layer="935" from-port="0" to-layer="936" to-port="1"/>
		<edge from-layer="936" from-port="2" to-layer="938" to-port="0"/>
		<edge from-layer="937" from-port="0" to-layer="938" to-port="1"/>
		<edge from-layer="938" from-port="2" to-layer="939" to-port="1"/>
		<edge from-layer="939" from-port="2" to-layer="940" to-port="0"/>
		<edge from-layer="940" from-port="1" to-layer="1003" to-port="1"/>
		<edge from-layer="940" from-port="1" to-layer="944" to-port="0"/>
		<edge from-layer="941" from-port="0" to-layer="944" to-port="1"/>
		<edge from-layer="941" from-port="0" to-layer="944" to-port="2"/>
		<edge from-layer="942" from-port="0" to-layer="944" to-port="3"/>
		<edge from-layer="943" from-port="0" to-layer="944" to-port="4"/>
		<edge from-layer="944" from-port="5" to-layer="946" to-port="0"/>
		<edge from-layer="945" from-port="0" to-layer="946" to-port="1"/>
		<edge from-layer="946" from-port="2" to-layer="948" to-port="0"/>
		<edge from-layer="947" from-port="0" to-layer="948" to-port="1"/>
		<edge from-layer="948" from-port="2" to-layer="950" to-port="0"/>
		<edge from-layer="949" from-port="0" to-layer="950" to-port="1"/>
		<edge from-layer="950" from-port="2" to-layer="952" to-port="0"/>
		<edge from-layer="951" from-port="0" to-layer="952" to-port="1"/>
		<edge from-layer="952" from-port="2" to-layer="954" to-port="0"/>
		<edge from-layer="953" from-port="0" to-layer="954" to-port="1"/>
		<edge from-layer="954" from-port="2" to-layer="956" to-port="0"/>
		<edge from-layer="955" from-port="0" to-layer="956" to-port="1"/>
		<edge from-layer="956" from-port="2" to-layer="958" to-port="0"/>
		<edge from-layer="957" from-port="0" to-layer="958" to-port="1"/>
		<edge from-layer="958" from-port="2" to-layer="960" to-port="0"/>
		<edge from-layer="959" from-port="0" to-layer="960" to-port="1"/>
		<edge from-layer="960" from-port="2" to-layer="961" to-port="0"/>
		<edge from-layer="961" from-port="1" to-layer="965" to-port="0"/>
		<edge from-layer="962" from-port="0" to-layer="965" to-port="1"/>
		<edge from-layer="962" from-port="0" to-layer="965" to-port="2"/>
		<edge from-layer="963" from-port="0" to-layer="965" to-port="3"/>
		<edge from-layer="964" from-port="0" to-layer="965" to-port="4"/>
		<edge from-layer="965" from-port="5" to-layer="967" to-port="0"/>
		<edge from-layer="966" from-port="0" to-layer="967" to-port="1"/>
		<edge from-layer="967" from-port="2" to-layer="969" to-port="0"/>
		<edge from-layer="968" from-port="0" to-layer="969" to-port="1"/>
		<edge from-layer="969" from-port="2" to-layer="971" to-port="0"/>
		<edge from-layer="970" from-port="0" to-layer="971" to-port="1"/>
		<edge from-layer="971" from-port="2" to-layer="973" to-port="0"/>
		<edge from-layer="972" from-port="0" to-layer="973" to-port="1"/>
		<edge from-layer="973" from-port="2" to-layer="975" to-port="0"/>
		<edge from-layer="974" from-port="0" to-layer="975" to-port="1"/>
		<edge from-layer="975" from-port="2" to-layer="977" to-port="0"/>
		<edge from-layer="976" from-port="0" to-layer="977" to-port="1"/>
		<edge from-layer="977" from-port="2" to-layer="979" to-port="0"/>
		<edge from-layer="978" from-port="0" to-layer="979" to-port="1"/>
		<edge from-layer="979" from-port="2" to-layer="981" to-port="0"/>
		<edge from-layer="980" from-port="0" to-layer="981" to-port="1"/>
		<edge from-layer="981" from-port="2" to-layer="982" to-port="0"/>
		<edge from-layer="982" from-port="1" to-layer="986" to-port="0"/>
		<edge from-layer="983" from-port="0" to-layer="986" to-port="1"/>
		<edge from-layer="983" from-port="0" to-layer="986" to-port="2"/>
		<edge from-layer="984" from-port="0" to-layer="986" to-port="3"/>
		<edge from-layer="985" from-port="0" to-layer="986" to-port="4"/>
		<edge from-layer="986" from-port="5" to-layer="988" to-port="0"/>
		<edge from-layer="987" from-port="0" to-layer="988" to-port="1"/>
		<edge from-layer="988" from-port="2" to-layer="990" to-port="0"/>
		<edge from-layer="989" from-port="0" to-layer="990" to-port="1"/>
		<edge from-layer="990" from-port="2" to-layer="992" to-port="0"/>
		<edge from-layer="991" from-port="0" to-layer="992" to-port="1"/>
		<edge from-layer="992" from-port="2" to-layer="994" to-port="0"/>
		<edge from-layer="993" from-port="0" to-layer="994" to-port="1"/>
		<edge from-layer="994" from-port="2" to-layer="996" to-port="0"/>
		<edge from-layer="995" from-port="0" to-layer="996" to-port="1"/>
		<edge from-layer="996" from-port="2" to-layer="998" to-port="0"/>
		<edge from-layer="997" from-port="0" to-layer="998" to-port="1"/>
		<edge from-layer="998" from-port="2" to-layer="1000" to-port="0"/>
		<edge from-layer="999" from-port="0" to-layer="1000" to-port="1"/>
		<edge from-layer="1000" from-port="2" to-layer="1002" to-port="0"/>
		<edge from-layer="1001" from-port="0" to-layer="1002" to-port="1"/>
		<edge from-layer="1002" from-port="2" to-layer="1003" to-port="0"/>
		<edge from-layer="1003" from-port="2" to-layer="1004" to-port="0"/>
		<edge from-layer="1004" from-port="1" to-layer="1067" to-port="1"/>
		<edge from-layer="1004" from-port="1" to-layer="1008" to-port="0"/>
		<edge from-layer="1005" from-port="0" to-layer="1008" to-port="2"/>
		<edge from-layer="1005" from-port="0" to-layer="1008" to-port="1"/>
		<edge from-layer="1006" from-port="0" to-layer="1008" to-port="3"/>
		<edge from-layer="1007" from-port="0" to-layer="1008" to-port="4"/>
		<edge from-layer="1008" from-port="5" to-layer="1010" to-port="0"/>
		<edge from-layer="1009" from-port="0" to-layer="1010" to-port="1"/>
		<edge from-layer="1010" from-port="2" to-layer="1012" to-port="0"/>
		<edge from-layer="1011" from-port="0" to-layer="1012" to-port="1"/>
		<edge from-layer="1012" from-port="2" to-layer="1014" to-port="0"/>
		<edge from-layer="1013" from-port="0" to-layer="1014" to-port="1"/>
		<edge from-layer="1014" from-port="2" to-layer="1016" to-port="0"/>
		<edge from-layer="1015" from-port="0" to-layer="1016" to-port="1"/>
		<edge from-layer="1016" from-port="2" to-layer="1018" to-port="0"/>
		<edge from-layer="1017" from-port="0" to-layer="1018" to-port="1"/>
		<edge from-layer="1018" from-port="2" to-layer="1020" to-port="0"/>
		<edge from-layer="1019" from-port="0" to-layer="1020" to-port="1"/>
		<edge from-layer="1020" from-port="2" to-layer="1022" to-port="0"/>
		<edge from-layer="1021" from-port="0" to-layer="1022" to-port="1"/>
		<edge from-layer="1022" from-port="2" to-layer="1024" to-port="0"/>
		<edge from-layer="1023" from-port="0" to-layer="1024" to-port="1"/>
		<edge from-layer="1024" from-port="2" to-layer="1025" to-port="0"/>
		<edge from-layer="1025" from-port="1" to-layer="1029" to-port="0"/>
		<edge from-layer="1026" from-port="0" to-layer="1029" to-port="2"/>
		<edge from-layer="1026" from-port="0" to-layer="1029" to-port="1"/>
		<edge from-layer="1027" from-port="0" to-layer="1029" to-port="3"/>
		<edge from-layer="1028" from-port="0" to-layer="1029" to-port="4"/>
		<edge from-layer="1029" from-port="5" to-layer="1031" to-port="0"/>
		<edge from-layer="1030" from-port="0" to-layer="1031" to-port="1"/>
		<edge from-layer="1031" from-port="2" to-layer="1033" to-port="0"/>
		<edge from-layer="1032" from-port="0" to-layer="1033" to-port="1"/>
		<edge from-layer="1033" from-port="2" to-layer="1035" to-port="0"/>
		<edge from-layer="1034" from-port="0" to-layer="1035" to-port="1"/>
		<edge from-layer="1035" from-port="2" to-layer="1037" to-port="0"/>
		<edge from-layer="1036" from-port="0" to-layer="1037" to-port="1"/>
		<edge from-layer="1037" from-port="2" to-layer="1039" to-port="0"/>
		<edge from-layer="1038" from-port="0" to-layer="1039" to-port="1"/>
		<edge from-layer="1039" from-port="2" to-layer="1041" to-port="0"/>
		<edge from-layer="1040" from-port="0" to-layer="1041" to-port="1"/>
		<edge from-layer="1041" from-port="2" to-layer="1043" to-port="0"/>
		<edge from-layer="1042" from-port="0" to-layer="1043" to-port="1"/>
		<edge from-layer="1043" from-port="2" to-layer="1045" to-port="0"/>
		<edge from-layer="1044" from-port="0" to-layer="1045" to-port="1"/>
		<edge from-layer="1045" from-port="2" to-layer="1046" to-port="0"/>
		<edge from-layer="1046" from-port="1" to-layer="1050" to-port="0"/>
		<edge from-layer="1047" from-port="0" to-layer="1050" to-port="1"/>
		<edge from-layer="1047" from-port="0" to-layer="1050" to-port="2"/>
		<edge from-layer="1048" from-port="0" to-layer="1050" to-port="3"/>
		<edge from-layer="1049" from-port="0" to-layer="1050" to-port="4"/>
		<edge from-layer="1050" from-port="5" to-layer="1052" to-port="0"/>
		<edge from-layer="1051" from-port="0" to-layer="1052" to-port="1"/>
		<edge from-layer="1052" from-port="2" to-layer="1054" to-port="0"/>
		<edge from-layer="1053" from-port="0" to-layer="1054" to-port="1"/>
		<edge from-layer="1054" from-port="2" to-layer="1056" to-port="0"/>
		<edge from-layer="1055" from-port="0" to-layer="1056" to-port="1"/>
		<edge from-layer="1056" from-port="2" to-layer="1058" to-port="0"/>
		<edge from-layer="1057" from-port="0" to-layer="1058" to-port="1"/>
		<edge from-layer="1058" from-port="2" to-layer="1060" to-port="0"/>
		<edge from-layer="1059" from-port="0" to-layer="1060" to-port="1"/>
		<edge from-layer="1060" from-port="2" to-layer="1062" to-port="0"/>
		<edge from-layer="1061" from-port="0" to-layer="1062" to-port="1"/>
		<edge from-layer="1062" from-port="2" to-layer="1064" to-port="0"/>
		<edge from-layer="1063" from-port="0" to-layer="1064" to-port="1"/>
		<edge from-layer="1064" from-port="2" to-layer="1066" to-port="0"/>
		<edge from-layer="1065" from-port="0" to-layer="1066" to-port="1"/>
		<edge from-layer="1066" from-port="2" to-layer="1067" to-port="0"/>
		<edge from-layer="1067" from-port="2" to-layer="1068" to-port="0"/>
		<edge from-layer="1068" from-port="1" to-layer="1069" to-port="0"/>
		<edge from-layer="1069" from-port="1" to-layer="1070" to-port="0"/>
		<edge from-layer="1069" from-port="1" to-layer="1081" to-port="0"/>
		<edge from-layer="1070" from-port="1" to-layer="1074" to-port="0"/>
		<edge from-layer="1071" from-port="0" to-layer="1074" to-port="1"/>
		<edge from-layer="1072" from-port="0" to-layer="1074" to-port="2"/>
		<edge from-layer="1073" from-port="0" to-layer="1074" to-port="3"/>
		<edge from-layer="1074" from-port="4" to-layer="1076" to-port="0"/>
		<edge from-layer="1075" from-port="0" to-layer="1076" to-port="1"/>
		<edge from-layer="1076" from-port="2" to-layer="1078" to-port="0"/>
		<edge from-layer="1077" from-port="0" to-layer="1078" to-port="1"/>
		<edge from-layer="1078" from-port="2" to-layer="1080" to-port="0"/>
		<edge from-layer="1079" from-port="0" to-layer="1080" to-port="1"/>
		<edge from-layer="1080" from-port="2" to-layer="1081" to-port="1"/>
		<edge from-layer="1081" from-port="2" to-layer="1083" to-port="0"/>
		<edge from-layer="1082" from-port="0" to-layer="1083" to-port="1"/>
		<edge from-layer="1083" from-port="2" to-layer="1085" to-port="0"/>
		<edge from-layer="1084" from-port="0" to-layer="1085" to-port="1"/>
		<edge from-layer="1085" from-port="2" to-layer="1086" to-port="0"/>
	</edges>
	<meta_data>
		<MO_version value="2022.1.0-6456-86faa257241"/>
		<cli_parameters>
			<caffe_parser_path value="DIR"/>
			<compress_fp16 value="False"/>
			<data_type value="FP32"/>
			<disable_nhwc_to_nchw value="False"/>
			<disable_omitting_optional value="False"/>
			<disable_resnet_optimization value="False"/>
			<disable_weights_compression value="False"/>
			<enable_concat_optimization value="False"/>
			<enable_flattening_nested_params value="False"/>
			<enable_ssd_gluoncv value="False"/>
			<extensions value="DIR"/>
			<framework value="onnx"/>
			<freeze_placeholder_with_value value="{}"/>
			<generate_deprecated_IR_V7 value="False"/>
			<input value="0"/>
			<input_model value="DIR/model_bin.onnx"/>
			<input_model_is_text value="False"/>
			<input_shape value="[1,3,224,224]"/>
			<k value="DIR/CustomLayersMapping.xml"/>
			<keep_shape_ops value="True"/>
			<layout value="0(nchw)"/>
			<layout_values value="{'0': {'source_layout': 'nchw', 'target_layout': None, 'is_input': True}}"/>
			<legacy_ir_generation value="False"/>
			<legacy_mxnet_model value="False"/>
			<log_level value="ERROR"/>
			<mean_scale_values value="{'0': {'mean': array([123.678, 116.28 , 103.53 ]), 'scale': array([58.3942, 57.12  , 57.3756])}}"/>
			<mean_values value="0[123.678,116.28,103.53]"/>
			<model_name value="resnet50-binary-0001"/>
			<output value="['1463']"/>
			<output_dir value="DIR"/>
			<placeholder_data_types value="{}"/>
			<placeholder_shapes value="{'0': (1, 3, 224, 224)}"/>
			<progress value="False"/>
			<remove_memory value="False"/>
			<remove_output_softmax value="False"/>
			<reverse_input_channels value="True"/>
			<save_params_from_nd value="False"/>
			<scale_values value="0[58.3942,57.12,57.3756]"/>
			<silent value="False"/>
			<source_layout value="()"/>
			<static_shape value="False"/>
			<stream_output value="False"/>
			<target_layout value="()"/>
			<transform value=""/>
			<use_legacy_frontend value="False"/>
			<use_new_frontend value="False"/>
			<unset unset_cli_parameters="batch, counts, disable_fusing, disable_gfusing, finegrain_fusing, input_checkpoint, input_meta_graph, input_proto, input_symbol, mean_file, mean_file_offsets, move_to_preprocess, nd_prefix_name, pretrained_model_name, saved_model_dir, saved_model_tags, scale, tensorboard_logdir, tensorflow_custom_layer_libraries, tensorflow_custom_operations_config_update, tensorflow_object_detection_api_pipeline_config, tensorflow_use_custom_operations_config, transformations_config"/>
		</cli_parameters>
	</meta_data>
</net>
